models/model_v1_drop_p_0.3_MSE_thres_0.5_Adam_LR_0.001_s_0_1702280403_5.pth (torch, 631565 bytes, 68 tensors)

state f4 [64, 1, 3, 3]
0.29617083 0.18360724 0.19298384 -0.08543462 -0.22735587 -0.17425483 0.00624791 -0.3344025
-0.10893216 0.010221869 -0.2853162 0.34265238 0.056472614 0.237132 -0.2509716 0.23671603
-0.16099143 0.112479515 0.23252122 0.23384774 -0.33436164 -0.15111436 -0.18870254 0.10300101
-0.1988812 0.19128425 -0.25906006 -0.0067992513 -0.047146864 -0.2792654 -0.0747172 -0.30547485
-0.2511625 -0.3282432 0.038613435 -0.0482539 -0.03721675 0.16354428 0.20223802 0.1722909
0.08880178 0.32684883 -0.045744523 0.30725494 -0.16693373 -0.36764294 -0.03777631 -0.1254374
-0.22419684 -0.24902299 -0.02948637 0.00967608 -0.044544626 -0.06594305 0.27843866 0.19785161
-0.16428982 -0.22524352 0.032432977 0.15266804 0.2676103 0.2187527 0.2463702 0.073778324
-0.16007374 0.2767264 0.14666297 0.30338168 -0.1094792 -0.31507224 0.24019156 -0.03620723
-0.19915973 0.31038678 0.116406694 0.26107967 0.2643714 -0.26467854 0.28849402 0.2846547
-0.27824292 0.13650867 0.3241048 0.22718354 -0.12734146 -0.2267841 -0.15749966 0.17704515
-0.26893213 0.07654433 -0.16190384 -0.19632554 0.2812276 -0.26774865 -0.03534311 0.21571006
-0.21707836 -0.17326494 -0.101448104 0.31568637 0.124395184 0.19245134 -0.16043128 -0.31769824
0.21486136 0.20583339 0.24542023 0.15102524 0.14252172 0.1284178 -0.12860224 -0.06860235
0.3517082 0.033900592 0.030747646 -0.20960467 0.2943118 -0.0028086803 0.07014865 0.01779859
0.2562839 0.33705124 0.3347814 -0.18724316 -0.06215155 -0.11940547 0.14926244 0.14801915
-0.31727856 -0.27280822 -0.08024268 -0.029248443 0.22852308 0.091344446 0.23272069 -0.24427329
0.29369023 0.29791117 0.19983527 0.039689805 0.32921404 0.0009424784 -0.025875313 -0.030857055
0.10255226 0.12436371 0.28162587 0.22910325 0.16063266 0.08822158 0.09185821 0.24621335
-0.1111259 0.26918426 -0.19521864 -0.1423691 0.1662011 -0.2222889 -0.15891619 0.13918656
0.0051589985 0.2305334 -0.19966255 -0.24340782 0.050417703 0.26596463 0.16884893 -0.12889853
-0.16748759 0.20165984 0.10828018 0.18015477 -0.18499286 0.23709507 -0.025627956 0.069690965
-0.21734467 -0.053885244 -0.09731521 -0.2669781 0.23932491 0.14543308 -0.17817086 0.12136977
-0.045426518 -0.29105243 0.1002257 -0.01969739 0.23805138 0.19990076 -0.10075972 -0.03150356
0.31059587 -0.24499053 0.048280768 -0.09871675 -0.27291623 -0.03902837 0.3359427 -0.107487954
-0.17713945 -0.08389171 -0.3068296 -0.10433531 -0.34583512 0.07296029 -0.39126772 -0.24511038
-0.40529168 -0.27117455 0.20844738 0.24666466 -0.26373345 0.39256585 -0.21443555 -0.30400628
0.13789375 -0.019582791 -0.1329062 0.05653258 0.033509705 0.28486875 0.14443856 0.011528436
-0.2458949 0.017187383 -0.3607431 -0.13776983 0.0007667206 -0.09670422 -0.3168843 0.2212143
0.1833506 0.008969313 -0.11031156 0.10057832 0.21682295 0.14117059 0.06028754 0.06026613
0.07675527 0.053369742 -0.06867248 -0.25887206 0.16730294 0.15844224 -0.34287417 -0.0035840399
-0.25591087 0.27187663 -0.06614789 -0.20530929 -0.15888019 0.2322976 -0.026788898 -0.009393823
00000000: b4a3 973e 8903 3c3e 8e9d 453e 59f8 aebd
00000010: facf 68be dc6f 32be 45bb cc3b ce36 abbe
00000020: d317 dfbd a079 273c f714 92be 2270 af3e
00000030: d44f 673d bbd2 723e 597f 80be b065 723e
00000040: f0da 24be a95b e63d 0b1a 6e3e c875 6f3e
00000050: 7331 abbe b9bd 1abe 3d3b 41be 32f2 d23d
00000060: 83a7 4bbe 05e0 433e 85a3 84be 41cc debb
00000070: 121d 41bd e0fb 8ebe 5505 99bd 3367 9cbe
00000080: 5f98 80be 7e0f a8be 1f29 1e3d e2a5 45bd
00000090: 9770 18bd 2778 273e 7c17 4f3e 076d 303e
000000a0: b5dd b53d bb58 a73e 9c5e 3bbd 8550 9d3e
000000b0: adf0 2abe b23b bcbe 55bb 1abd a972 00be
000000c0: db93 65be e2ff 7ebe 668d f1bc 6c88 1e3c
000000d0: 6d74 36bd 260d 87bd 838f 8e3e 9d99 4a3e
000000e0: 973b 28be 3da6 66be 71d8 043d 0355 1c3e
000000f0: 3804 893e b500 603e 7848 7c3e 1719 973d
00000100: 5fea 23be 15af 8d3e d12e 163e d854 9b3e
00000110: a136 e0bd 2651 a1be c7f4 753e 084e 14bd
00000120: 87f0 4bbe 04eb 9e3e a266 ee3d 3cac 853e
00000130: b05b 873e f283 87be 7db5 933e 43be 913e
00000140: db75 8ebe eec8 0b3e 10f1 a53e cda2 683e
00000150: cd65 02be 173a 68be 9747 21be 534b 353e
00000160: 79b1 89be 46c3 9c3d 1fca 25be 9009 49be
00000170: 10fd 8f3e 5a16 89be f0c3 10bd 19e3 5c3e
00000180: ca49 5ebe 5d6c 31be 06c4 cfbd a5a1 a13e
00000190: e7c2 fe3d f711 453e 1948 24be 58a9 a2be
000001a0: 9e04 5c3e fdc5 523e 714f 7b3e 5ca6 1a3e
000001b0: 37f1 113e f57f 033e 4eb0 03be 647f 8cbd
000001c0: 1913 b43e 59db 0a3d 7de2 fb3c 9ba2 56be
000001d0: 09b0 963e d611 38bb 18aa 8f3d 59ce 913c
000001e0: a537 833e fb91 ac3e 7868 ab3e acbc 3fbe
000001f0: a092 7ebd db8a f4bd 41d8 183e 5592 173e
00000200: 5672 a2be 85ad 8bbe 4656 a4bd 6e9a efbc
00000210: f401 6a3e cc12 bb3d 554e 6e3e c722 7abe
00000220: 915e 963e d087 983e 9ea1 4c3e c791 223d
00000230: be8e a83e a810 773a 77f8 d3bc efc7 fcbc
00000240: eb06 d23d 67b2 fe3d 4431 903e 0b9a 6a3e
00000250: e37c 243e 84ad b43d 2820 bc3d 5a1f 7c3e
00000260: fa95 e3bd 85d2 893e 65e7 47be 35c9 11be
00000270: 9f30 2a3e b49f 63be edba 22be ec86 0e3e
00000280: d10c a93b f310 6c3e 5774 4cbe e63f 79be
00000290: cb82 4e3d 842c 883e bce6 2c3e fafd 03be
000002a0: de81 2bbe eb7f 4e3e 00c2 dd3d 7e7a 383e
000002b0: c56e 3dbe 0dc9 723e b8f1 d1bc 23ba 8e3d
000002c0: 9a8f 5ebe c6b6 5cbd 324d c7bd 5bb1 88be
000002d0: 9711 753e 69ec 143e 6c72 36be b790 f83d
000002e0: 2811 3abd d304 95be 2243 cd3d 6c5c a1bc
000002f0: bec3 733e c9b2 4c3e 1d5b cebd e009 01bd
00000300: 6c06 9f3e ccde 7abe 0ec2 453d 022c cabd
00000310: adbb 8bbe 36dc 1fbd ae00 ac3e a522 dcbd
00000320: 0b64 35be 6bcf abbd c518 9dbe c0ad d5bd
00000330: 4d11 b1be 346c 953d 3e54 c8be 37fe 7abe
00000340: 6482 cfbe 64d7 8abe 3b73 553e a995 7c3e
00000350: 1208 87be 64fe c83e fe94 5bbe b6a6 9bbe
00000360: 0534 0d3e 176c a0bc 9018 08be b58e 673d
00000370: 7941 093d 51da 913e b4e7 133e c4e1 3c3c
00000380: dfcb 7bbe 8ecc 8c3c 52b3 b8be 8913 0dbe
00000390: c0fd 483a dd0c c6bd a93e a2be 0086 623e
000003a0: 42c0 3b3e 07f4 123c 07eb e1bd 02fc cd3d
000003b0: d606 5e3e 068f 103e 11f0 763d 9ed9 763d
000003c0: de31 9d3d 3b9a 5a3d 28a4 8cbd e18a 84be
000003d0: 7651 2b3e af3e 223e 348d afbe 36e2 6abb
000003e0: c006 83be 6a33 8b3e 8c78 87bd 993c 52be
000003f0: 7db1 22be 6cdf 6d3e 6474 dbbc 8de8 19bc

exp_avg f4 [64, 1, 3, 3]
-2.2065156e-05 -1.7615703e-05 -1.4319722e-05 -1.43251e-05 -3.4167333e-06 -6.3451307e-06 -1.2818852e-05 -9.184697e-07
-6.774886e-06 -0.00018895969 -0.00019965843 -0.00019256945 -0.00019390864 -0.00020411637 -0.00020246729 -0.0001867642
-0.00020133881 -0.00019732874 -3.8192735e-05 -1.1783089e-05 -1.3147273e-05 -2.2712578e-05 1.3635836e-06 -1.1784339e-05
-2.3448629e-05 -1.1157049e-05 -1.20307495e-05 -2.2858563e-07 5.1773673e-06 6.808908e-21 2.3871046e-06 2.5256234e-22
5.4275425e-19 0.0 -5.561483e-06 -1.9264755e-05 1.5946378e-05 8.0930795e-06 1.559258e-05 1.5614525e-05
6.8604854e-06 1.2564418e-05 2.188827e-05 1.4534574e-05 1.6929565e-05 2.3457546e-21 -1.4457288e-06 -4.6627233e-06
7.8846296e-07 -1.6190688e-06 -8.732337e-06 9.81779e-06 6.641152e-06 -1.5326663e-05 -0.00014362313 -0.00015806647
-0.00015048757 -0.00014547349 -0.00016007783 -0.000152627 -0.00014031817 -0.00015423285 -0.00014355035 -9.64967e-05
-0.00011303172 -6.4344174e-05 -7.565897e-05 -8.2849256e-05 -9.6438715e-05 -8.462185e-05 -8.5313906e-05 -8.7827524e-05
-3.0012938e-05 -3.195904e-05 -2.936831e-05 -3.351975e-05 -3.721938e-05 -3.479161e-05 -3.0544026e-05 -3.568353e-05
-3.4851833e-05 -3.4902707e-06 -7.1242416e-06 -2.749012e-06 -4.465033e-06 -6.884838e-07 -1.7491752e-06 -2.068474e-06
-7.588343e-07 -1.8713258e-06 -8.8089905e-07 1.5658652e-05 7.158143e-06 -8.481788e-07 1.6381216e-05 4.124427e-06
-3.3485271e-06 1.2008339e-05 -3.4192708e-06 -5.5933993e-05 -7.499456e-05 -6.246078e-05 -6.744036e-05 -8.704908e-05
-7.2121176e-05 -6.336032e-05 -7.910082e-05 -6.9124144e-05 -0.00035473687 -0.00036032978 -0.00035188693 -0.00036650882
-0.00037470716 -0.00037145033 -0.0003566144 -0.00037567382 -0.0003513532 -2.3495717e-05 -2.6250606e-05 -1.1792109e-05
-2.7640663e-05 -3.2333588e-05 -2.4099336e-05 -2.9291237e-05 -4.1662424e-05 -3.2747896e-05 -5.771178e-05 -6.201844e-05
-6.1304425e-05 -5.858117e-05 -6.47351e-05 -6.2302235e-05 -5.355676e-05 -6.101724e-05 -5.90368e-05 -0.00018488395
-0.00018818064 -0.00017513928 -0.00019103245 -0.00019772396 -0.00018843805 -0.00018749364 -0.00019422361 -0.00018692164
6.3000657e-06 1.653225e-06 -6.3339274e-07 3.929238e-06 -1.7949095e-06 -3.471585e-06 6.757005e-06 6.664482e-07
-1.1139435e-06 1.0193592e-05 1.8280925e-05 -4.152658e-06 2.4910296e-05 3.1835392e-05 8.807722e-06 2.1239704e-05
2.5336385e-05 -3.4601553e-06 8.277529e-06 -1.6616665e-05 -4.2704983e-07 -4.368413e-05 -8.101908e-05 -7.514006e-05
-6.222429e-05 -7.015403e-05 -3.9911316e-05 3.8968083e-05 4.794381e-05 3.518959e-05 3.312118e-05 4.220194e-05
2.5327947e-05 2.2117196e-05 3.0722455e-05 6.5613067e-06 8.0743484e-05 6.777111e-05 6.767511e-05 6.545882e-05
4.952963e-05 5.209255e-05 7.027613e-05 5.830293e-05 7.1764094e-05 -1.1058344e-05 8.42798e-06 2.8454671e-05
-8.854314e-06 6.8457293e-06 2.3322966e-05 -1.4426262e-05 -1.8844429e-06 1.7637744e-07 -1.1647464e-05 -1.4631414e-06
1.6752884e-08 -3.6058536e-06 3.4808515e-08 -3.645084e-07 -1.056958e-07 -6.374356e-07 3.941351e-08 -6.4862447e-06
5.840578e-07 7.9320614e-07 -1.1768753e-05 2.0511906e-07 -2.1347864e-06 -1.8768338e-05 -3.8802323e-06 3.2259443e-06
-0.00015411267 -0.00015787465 -0.0001521755 -0.00016248578 -0.00016973674 -0.00016222661 -0.00015801047 -0.0001670927
-0.00016222875 -5.2937025e-06 -9.4809565e-07 -1.1452263e-06 -6.758463e-06 4.9362407e-06 -1.0299498e-06 -1.4871238e-05
-7.915421e-06 -6.6037715e-06 -0.0001866575 -0.00019462376 -0.00019005913 -0.00019027221 -0.00020050467 -0.00019665367
-0.00018578401 -0.00019595775 -0.000191945 9.720215e-06 3.672038e-05 2.2337603e-05 1.0717584e-05 3.3009048e-05
1.9129246e-05 2.1161548e-05 4.1843607e-05 1.8036239e-05 -0.00019830001 -0.00017008968 -0.00017352293 -0.00019821434
00000000: 9018 b9b7 6fc5 93b7 bd3e 70b7 d655 70b7
00000010: 084b 65b6 42e8 d4b6 8d10 57b7 c28c 76b5
00000020: d453 e3b6 7b23 46b9 675b 51b9 78ec 49b9
00000030: f453 4bb9 1208 56b9 664d 54b9 22d6 43b9
00000040: 7a1e 53b9 08ea 4eb9 2331 20b8 fbaf 45b7
00000050: 1c93 5cb7 e486 beb7 6004 b735 5ab5 45b7
00000060: 8cb3 c4b7 292f 3bb7 add7 49b7 2471 75b4
00000070: 3fb9 ad36 dc9d 001e 2532 2036 21aa 981b
00000080: 5a31 2021 0000 0000 c69c bab6 bf9a a1b7
00000090: 96c4 8537 83c7 0737 d0cc 8237 f0fb 8237
000000a0: 1f33 e636 c4cb 5237 b49c b737 85d9 7337
000000b0: f703 8e37 7e3d 311d dd0a c2b5 7d74 9cb6
000000c0: c3a6 5335 c84e d9b5 1a81 12b7 16b7 2437
000000d0: 10d7 de36 c291 80b7 8a99 16b9 a5be 25b9
000000e0: 33cc 1db9 3e8a 18b9 91da 27b9 800a 20b9
000000f0: 5f22 13b9 91b9 21b9 0186 16b9 455e cab8
00000100: 710b edb8 84f0 86b8 1aab 9eb8 5bbf adb8
00000110: 243f cab8 0377 b1b8 8eea b2b8 0b30 b8b8
00000120: 4bc4 fbb7 c20b 06b8 f75b f6b7 8f97 0cb8
00000130: 011c 1cb8 35ed 11b8 661c 00b8 e6aa 15b8
00000140: df2d 12b8 653a 6ab6 c50c efb6 ab7b 38b6
00000150: 57d2 95b6 3fd0 38b5 34c5 eab5 1dd0 0ab6
00000160: b2b2 4bb5 442a fbb5 ec76 6cb5 b35a 8337
00000170: fb2f f036 67ae 63b5 656a 8937 8f64 8a36
00000180: 42b7 60b6 6c77 4937 a076 65b6 ab9a 6ab8
00000190: 6646 9db8 60fd 82b8 c56e 8db8 1e8e b6b8
000001a0: c33f 97b8 50e0 84b8 eee2 a5b8 bef6 90b8
000001b0: fafb b9b9 a5ea bcb9 777d b8b9 fb27 c0b9
000001c0: 5874 c4b9 38bf c2b9 f9f7 bab9 16f6 c4b9
000001d0: d435 b8b9 ab18 c5b7 bf34 dcb7 b9d6 45b7
000001e0: dfdd e7b7 ed9d 07b8 ee28 cab7 74b6 f5b7
000001f0: b0be 2eb8 c95a 09b8 8d0f 72b8 e50f 82b8
00000200: 9090 80b8 0db5 75b8 64c2 87b8 42a8 82b8
00000210: 22a2 60b8 c3ec 7fb8 489e 77b8 68dd 41b9
00000220: 5b52 45b9 98a5 37b9 e24f 48b9 1f54 4fb9
00000230: 7497 45b9 f199 44b9 81a8 4bb9 6500 44b9
00000240: 2765 d336 61e4 dd35 6b06 2ab5 e6d7 8336
00000250: 9fe8 f0b5 60f9 68b6 3bba e236 f9e5 3235
00000260: cf82 95b5 2505 2b37 fd59 9937 1057 8bb6
00000270: 74f6 d037 fe86 0538 e1c4 1337 eb2b b237
00000280: 7989 d437 0435 68b6 b7df 0a37 0464 8bb7
00000290: 4845 e5b4 7a39 37b8 cae8 a9b8 8394 9db8
000002a0: 697e 82b8 a81f 93b8 7366 27b8 a971 2338
000002b0: 4617 4938 8998 1338 99eb 0a38 fd01 3138
000002c0: 5a77 d437 5188 b937 fcdb 0038 3229 dc36
000002d0: d454 a938 5620 8e38 ccec 8d38 f046 8938
000002e0: 09be 4f38 f37d 5a38 3661 9338 4b8a 7438
000002f0: 0e80 9638 3a87 39b7 e665 0d37 f1b1 ee37
00000300: fd8c 14b7 5eb4 e536 b0a5 c337 5308 72b7
00000310: f7ec fcb5 4362 3d34 7a69 43b7 2861 c4b5
00000320: fbe7 8f32 18fc 71b6 5e80 1533 a7b1 c3b4
00000330: e1fa e2b3 3e1c 2bb5 9d47 2933 6ba4 d9b6
00000340: 25c8 1c35 b6ec 5435 6972 45b7 b33e 5c34
00000350: 5a43 0fb6 b370 9db7 f132 82b6 4d7d 5836
00000360: 4e99 21b9 278b 25b9 4d91 1fb9 f260 2ab9
00000370: 5cfb 31b9 601b 2ab9 9daf 25b9 9b35 2fb9
00000380: f31b 2ab9 8fa0 b1b6 a380 7eb5 adb5 99b5
00000390: c1c6 e2b6 fca1 a536 ce3c 8ab5 7b7f 79b7
000003a0: 79cc 04b7 f795 ddb6 7eb9 43b9 eb13 4cb9
000003b0: 9c4a 47b9 cf83 47b9 903e 52b9 d134 4eb9
000003c0: 04cf 42b9 027a 4db9 d844 49b9 0114 2337
000003d0: 3504 1a38 a361 bb37 accf 3337 3273 0a38
000003e0: be77 a037 1484 b137 3b81 2f38 874c 9737
000003f0: c1ee 4fb9 1a5a 32b9 b5f3 35b9 c2d7 4fb9

exp_avg_sq f4 [64, 1, 3, 3]
1.19308154e-08 7.953533e-09 7.1012844e-09 4.401498e-09 1.5559065e-09 1.6916455e-09 1.7204107e-09 2.2943631e-11
3.5820946e-10 1.1742397e-06 1.1757704e-06 1.1821078e-06 1.1934886e-06 1.205634e-06 1.1814204e-06 1.1846128e-06
1.1883155e-06 1.1804522e-06 1.2957557e-07 1.0625647e-07 5.7062767e-08 8.354572e-08 7.246281e-08 5.6888652e-08
5.9181207e-08 7.122128e-08 4.0049965e-08 4.682176e-09 7.898891e-10 3.059152e-13 8.500787e-10 5.7763944e-13
5.284694e-13 0.0 3.5771236e-10 2.1903015e-09 1.2498781e-06 1.256701e-06 1.2606796e-06 1.248424e-06
1.2554287e-06 1.260583e-06 1.2382819e-06 1.2470864e-06 1.2494506e-06 2.589687e-13 2.4893625e-09 1.9070516e-08
1.1874103e-09 6.324334e-10 1.9347642e-08 1.641392e-08 1.48556065e-08 3.7152617e-08 3.1092738e-06 3.1097552e-06
3.0508668e-06 3.0915862e-06 3.1207574e-06 3.0971805e-06 3.1054433e-06 3.1163593e-06 3.101318e-06 8.9134005e-07
9.561925e-07 9.836547e-07 9.3103705e-07 1.0534604e-06 9.502763e-07 8.4204714e-07 9.600366e-07 8.994798e-07
3.5392645e-07 3.5700685e-07 3.494945e-07 3.5867956e-07 3.6156098e-07 3.5291336e-07 3.5824328e-07 3.6105826e-07
3.5011064e-07 6.287874e-09 8.479694e-09 7.0336394e-09 1.865751e-09 1.283259e-09 1.5062063e-09 1.6449216e-09
2.0235645e-10 1.0496659e-09 7.0392536e-09 2.2703471e-08 5.6670753e-08 1.5658012e-09 1.5919948e-08 4.343923e-08
8.2197094e-10 8.557033e-09 2.876527e-08 3.850128e-06 3.8695143e-06 3.851637e-06 3.8110313e-06 3.850552e-06
3.9095e-06 3.7944335e-06 3.882028e-06 3.8471862e-06 5.8899195e-06 6.1298215e-06 5.871777e-06 6.0123193e-06
6.4035e-06 6.096175e-06 5.861001e-06 6.0440448e-06 6.042428e-06 4.046193e-06 4.252314e-06 4.1305902e-06
4.14489e-06 4.3896903e-06 4.2548554e-06 3.9864663e-06 4.138932e-06 4.0285577e-06 1.4376582e-07 1.4625526e-07
1.4335151e-07 1.4483906e-07 1.480652e-07 1.4584779e-07 1.4493946e-07 1.4769333e-07 1.4600663e-07 3.3690928e-06
3.5649714e-06 3.6612328e-06 3.388692e-06 3.565769e-06 3.6593763e-06 3.3004367e-06 3.4180557e-06 3.470346e-06
9.0336437e-07 9.11665e-07 9.1550305e-07 9.0945866e-07 9.179341e-07 9.220916e-07 9.090377e-07 9.1697063e-07
9.204212e-07 3.1271348e-08 6.0264354e-09 8.10321e-10 3.5320767e-08 9.972754e-09 4.2109467e-09 4.041667e-08
2.3242745e-08 1.9826432e-08 1.5811645e-08 1.8016095e-08 2.2087345e-08 3.2837725e-08 4.0484718e-08 3.283778e-08
3.5027472e-08 6.398871e-08 5.850848e-08 3.1606646e-06 3.032064e-06 3.0684023e-06 3.0509593e-06 2.9743842e-06
2.918219e-06 2.960218e-06 2.8791233e-06 2.8399663e-06 2.7912654e-06 2.6416126e-06 2.458062e-06 2.7974152e-06
2.6403554e-06 2.4676524e-06 2.771648e-06 2.6591974e-06 2.567588e-06 1.7797724e-08 8.571277e-09 1.5104384e-08
1.4767242e-08 3.4426526e-09 1.0313737e-08 5.577711e-09 6.413949e-10 6.5972827e-09 1.9437334e-09 3.4249686e-10
1.2361676e-10 2.0262425e-10 6.863955e-13 4.7975304e-12 1.5305106e-13 2.7345447e-11 3.1614061e-13 5.429217e-10
1.582651e-11 4.8091067e-12 1.0533812e-09 2.3894695e-10 2.0504555e-11 1.3559676e-09 2.2093793e-10 3.8601015e-11
1.5517131e-06 1.5168938e-06 1.4652848e-06 1.5642477e-06 1.5403953e-06 1.5029145e-06 1.5350544e-06 1.5036236e-06
1.4453177e-06 3.5484824e-09 5.4275096e-12 7.1373595e-11 8.581616e-09 2.0977298e-09 9.184551e-10 2.0385034e-08
1.1179305e-08 6.0055956e-09 1.9679994e-06 1.9826896e-06 1.983483e-06 1.984857e-06 1.9984018e-06 2.0002815e-06
1.9849242e-06 1.999155e-06 1.9995832e-06 1.5895874e-07 2.0188351e-07 1.9914842e-07 1.503454e-07 1.7714103e-07
1.6521376e-07 1.8587907e-07 1.8303038e-07 1.6961653e-07 1.042856e-06 1.2087991e-06 1.1467621e-06 1.110534e-06
00000000: 48f8 4c32 02a4 0832 8fff f331 fc3b 9731
00000010: 98d7 d530 7c7f e830 9273 ec30 77d0 c92d
00000020: 80ed c42f 929a 9d35 2acf 9d35 eaa8 9e35
00000030: f52f a035 45d1 a135 4c91 9e35 fcfe 9e35
00000040: 367e 9f35 0770 9e35 7621 0b34 1d2f e433
00000050: 2d15 7533 bf69 b333 da9c 9b33 bc55 7433
00000060: 6d2e 7e33 50f2 9833 6703 2c33 dbe0 a031
00000070: 811f 5930 0737 ac2a f8aa 6930 4f97 222b
00000080: 3cc0 142b 0000 0000 8aa7 c42f 3184 1631
00000090: 7cc1 a735 ebab a835 9f34 a935 868f a735
000000a0: 3480 a835 4d31 a935 0b33 a635 9061 a735
000000b0: ccb2 a735 53c9 912a 5411 2b31 82d0 a332
000000c0: 4932 a330 8bd7 2d30 ea31 a632 97fe 8c32
000000d0: a637 7f32 bc91 1f33 eba8 5036 30b1 5036
000000e0: 7ebd 4c36 0c79 4f36 346e 5136 28d9 4f36
000000f0: 1c67 5036 a522 5136 3d20 5036 6c44 6f35
00000100: 8656 8035 1e06 8435 61ec 7935 a064 8d35
00000110: 7d16 7f35 0a09 6235 9bda 8035 c873 7135
00000120: 4803 be34 a6aa bf34 29a2 bb34 8b90 c034
00000130: 901c c234 0b78 bd34 9554 c034 78d7 c134
00000140: d7f6 bb34 ba0c d831 17ae 1132 8cac f131
00000150: a436 0031 aa5e b030 ec02 cf30 8913 e230
00000160: 477e 5e2f d643 9030 eedd f131 7605 c332
00000170: 2766 7333 bb33 d730 56c0 8832 f091 3a33
00000180: 10f1 6130 3b02 1332 7f17 f732 5930 8136
00000190: e0d6 8136 4f3d 8136 05c1 7f36 fd33 8136
000001a0: 592e 8336 dfa3 7e36 5e42 8236 1417 8136
000001b0: 06a2 c536 c4ae cd36 2e06 c536 6ebd c936
000001c0: a5dd d636 bf8d cc36 9da9 c436 f3cd ca36
000001d0: 10c0 ca36 89c4 8736 19af 8e36 8099 8a36
000001e0: 5614 8b36 274b 9336 eec4 8e36 7cc3 8536
000001f0: 28e1 8a36 0c2d 8736 0c5e 1a34 570a 1d34
00000200: 2aec 1934 0f85 1b34 dafb 1e34 569a 1c34
00000210: a8a0 1b34 a295 1e34 ffc5 1c34 9318 6236
00000220: be3d 6f36 80b3 7536 4969 6336 724b 6f36
00000230: 9b93 7536 127d 5d36 c061 6536 17e4 6836
00000240: ba7e 7235 24b9 7435 e4c0 7535 8621 7435
00000250: f367 7635 a785 7735 9804 7435 be25 7635
00000260: dd12 7735 364f 0633 1611 cf31 45bd 5e30
00000270: 98b3 1733 a354 2b32 e1af 9031 9996 2d33
00000280: 56a7 c732 c94e aa32 2dd2 8732 d0c1 9a32
00000290: 96ba bd32 7609 0d33 6be1 2d33 8509 0d33
000002a0: 1d71 1633 2a6a 8933 c14a 7b33 ce1b 5436
000002b0: 767a 4b36 c0ea 4d36 15bf 4c36 889b 4736
000002c0: 9fd6 4336 28a8 4636 f636 4136 4096 3e36
000002d0: 9351 3b36 8f46 3136 2ff5 2436 3abb 3b36
000002e0: f630 3136 f299 2536 8d00 3a36 aa74 3236
000002f0: d34e 2c36 9ce1 9832 e040 1332 e4be 8132
00000300: 04b3 7d32 c993 6c31 4c30 3132 11a6 bf31
00000310: 274e 3030 50ae e231 8592 0531 264a bc2f
00000320: 06eb 072f a8c9 5e2f 0234 412b 50cc a82c
00000330: f751 2c2a 7988 f02d aaf8 b12a b83c 1530
00000340: 2236 8b2d 9534 a92c 8ec6 9030 cb5c 832f
00000350: 275c b42d de5c ba30 80ec 722f e1c4 292e
00000360: 7544 d035 1398 cb35 cdaa c435 24f3 d135
00000370: 94bf ce35 c0b7 c935 1108 ce35 1dd0 c935
00000380: bdfc c135 90d9 7331 a9f6 be2c c3f3 9c2e
00000390: 596e 1332 a727 1031 8876 7c30 2a1b af32
000003a0: 1a0f 4032 c759 ce31 f911 0436 590e 0536
000003b0: fa1b 0536 9533 0536 481c 0636 933c 0636
000003c0: bd34 0536 3929 0636 9430 0636 3fae 2a34
000003d0: 51c5 5834 80d5 5534 a16e 2134 2834 3e34
000003e0: 9d65 3134 0d96 4734 0287 4434 d61f 3634
000003f0: 42f8 8b35 053e a235 72ea 9935 a80d 9535

exp_avg_sq f4 [64]
-0.057816267 0.12348139 0.14401847 0.18052348 0.15385531 0.30390444 -0.111392446 -0.23094867
0.25572777 -0.20645554 0.121252775 -0.24272162 -0.21167265 -0.26927108 0.28819078 -0.28716516
0.23708096 -0.17392182 -0.10393403 0.30762544 -0.02786112 0.08958578 -0.011416748 -0.08176911
0.05331272 -0.01898506 0.15834673 0.26499394 -0.07874026 0.3518469 0.091300756 0.13690609
-0.3038902 0.007921056 -0.011496926 -0.19837789 -0.061692983 -0.10318061 -0.20406891 -0.083930455
-0.0042439806 -0.21472514 -0.17552672 -0.09963184 -0.26882675 0.11123184 -0.13056646 -0.010857605
0.022452198 -0.002668062 0.175892 -0.0083953785 0.3116849 -0.25328687 -0.25746378 -0.0042874347
-0.027806697 -0.2339494 -0.2596132 -0.015478443 0.26899487 0.1258058 -0.20220737 0.24863158
00000000: c0d0 6cbd d0e3 fc3d 9479 133e 26db 383e
00000010: 3f8c 1d3e 5d99 9b3e b921 e4bd cf7d 6cbe
00000020: c0ee 823e 1569 53be 6053 f83d 048c 78be
00000030: b7c0 58be e6dd 89be be8d 933e 5007 93be
00000040: 5ac5 723e 9018 32be 5ddb d4bd 1581 9d3e
00000050: 013d e4bc c078 b73d 500d 3bbc 9076 a7bd
00000060: 705e 5a3d 8e86 9bbc a525 223e 49ad 873e
00000070: 9342 a1bd 4725 b43e e4fb ba3d 1c31 0c3e
00000080: 7f97 9bbe 51c7 013c 9a5d 3cbc 9323 4bbe
00000090: c8b1 7cbd 5b50 d3bd 71f7 50be bbe3 abbd
000000a0: 1711 8bbb e8e0 5bbe 47bd 33be c70b ccbd
000000b0: a9a3 89be 85cd e33d 37b3 05be 19e4 31bc
000000c0: aced b73c a7da 2ebb 081d 343e c58c 09bc
000000d0: 2a95 9f3e d1ae 81be 4bd2 83be 9c7d 8cbb
000000e0: dfca e3bc 6e90 6fbe 05ec 84be 4c99 7dbc
000000f0: b2b9 893e 3cd3 003e 730f 4fbe 4799 7e3e

exp_avg f4 [64]
-2.881464e-05 -0.00019037456 -0.00017918364 -0.00011435977 7.298372e-05 -4.619512e-05 -0.00014565744 -5.328953e-05
-2.6239866e-06 -7.3567367e-06 -0.000120801735 -4.306548e-05 -0.00035257905 -2.4172292e-05 -6.39644e-05 -0.00018782324
1.2698921e-05 4.717511e-06 -3.651425e-05 1.6545714e-07 9.942294e-05 -6.1219755e-05 -1.1999469e-05 -2.0344318e-05
-0.00013183866 -1.8015095e-05 -0.00016033702 -2.5876805e-05 -0.00011090506 -1.602954e-05 -2.134583e-05 -5.600008e-06
0.0 5.9018254e-05 -5.739634e-05 3.415929e-05 0.0 -6.384145e-05 -0.00018345921 -7.080261e-06
-3.993407e-05 -5.9736312e-06 -1.2642906e-05 -1.0328169e-05 2.8465503e-05 -8.225117e-05 -3.8579024e-06 -2.5553783e-05
-0.00011190607 -9.881007e-06 -0.0001241459 -0.0001819816 -0.0001437477 8.121211e-06 -0.00026186166 -2.3523158e-05
-1.3050304e-05 -3.9092844e-05 -0.00013417052 -2.1897346e-05 -6.92119e-06 -3.1598454e-05 0.0 -1.6665108e-05
00000000: f8b6 f1b7 489f 47b9 3ee3 3bb9 6fd4 efb8
00000010: d60e 9938 a2c1 41b8 9fbb 18b9 3283 5fb8
00000020: bf17 30b6 e3d9 f6b6 f056 fdb8 35a1 34b8
00000030: 5cda b8b9 9ac5 cab7 a024 86b8 6bf2 44b9
00000040: 730d 5537 1c4b 9e36 e126 19b8 83a8 3134
00000050: 4981 d038 1b63 80b8 5451 49b7 17a9 aab7
00000060: 2c3e 0ab9 1f1f 97b7 2420 28b9 0412 d9b7
00000070: b395 e8b8 2d77 86b7 d20f b3b7 b4e7 bbb6
00000080: 0000 0000 5e8a 7738 dabc 70b8 4246 0f38
00000090: 0000 0000 9ee2 85b8 f55e 40b9 fb92 edb6
000000a0: e27e 27b8 1a71 c8b6 de1c 54b7 2647 2db7
000000b0: 34c9 ee37 437e acb8 2173 81b6 555c d6b7
000000c0: 1daf eab8 9ac6 25b7 292d 02b9 50d2 3eb9
000000d0: fbba 16b9 5640 0837 7a4a 89b9 9953 c5b7
000000e0: a1f2 5ab7 9ff7 23b8 20b0 0cb9 31b0 b7b7
000000f0: 923c e8b6 9588 04b8 0000 0000 0ccc 8bb7

exp_avg_sq f4 [64]
1.6176768e-08 1.5761465e-06 6.2249063e-07 4.802825e-07 1.9254255e-06 6.74969e-07 3.686551e-06 1.1266839e-06
4.642543e-07 9.776592e-09 4.5638782e-07 4.5212323e-06 6.669707e-06 4.5326983e-06 1.8135873e-07 3.9122156e-06
1.37507e-06 6.2754246e-08 7.442657e-08 4.511673e-06 3.1368859e-06 9.086791e-08 2.0842787e-09 1.4396138e-09
1.9915917e-06 2.32271e-08 2.9217233e-06 7.8448727e-07 1.4523845e-06 4.8351575e-07 3.37614e-07 1.8530847e-07
0.0 4.734755e-06 3.0355286e-06 5.6510068e-08 0.0 2.15747e-08 7.875534e-08 1.28352085e-08
3.9883157e-06 3.452821e-09 1.9095332e-08 9.1018654e-10 3.8082987e-06 1.2596861e-07 3.7428673e-09 5.627534e-06
3.8325386e-08 1.646131e-08 1.5174118e-06 1.4704818e-07 7.5194305e-07 1.5673981e-09 5.309061e-06 4.8369034e-06
3.6141223e-08 1.339919e-07 3.3455802e-07 2.0913157e-08 2.572652e-07 7.595459e-07 0.0 1.8192662e-06
00000000: 17f5 8a32 fb8b d335 3b19 2735 c3ec 0035
00000010: 8f36 0136 842f 3535 7766 7736 9038 9735
00000020: a03e f934 e8f5 2732 7705 f534 17b5 9736
00000030: 59cc df36 9517 9836 82bb 4234 ad45 8336
00000040: 0c8f b835 83c3 8633 71d4 9f33 fa62 9736
00000050: 4a83 5236 2923 c333 053b 0f31 e8db c530
00000060: 49a7 0536 ef84 c732 d312 4436 8e95 5235
00000070: 8def c235 f3ca 0135 5141 b534 34f9 4634
00000080: 0000 0000 3cdf 9e36 fcb5 4b36 7ab5 7233
00000090: 0000 0000 4453 b932 3520 a933 d881 5c32
000000a0: 5fd3 8536 ab46 6d31 1407 a432 af30 7a30
000000b0: 1392 7f36 fd41 0734 9c9a 8031 26d4 bc36
000000c0: 359b 2433 ce66 8d32 dfa9 cb35 4ce4 1d34
000000d0: 22d9 4935 eb6b d730 7d24 b236 af4c a236
000000e0: b239 1b33 6adf 0f34 4e9d b334 85a4 b332
000000f0: 431e 8a34 99e3 4b35 0000 0000 832d f435

exp_avg_sq f4 [32, 64, 3, 3]
-0.06450731 -0.0662913 -0.08175588 -0.085852034 -0.095568255 -0.10662081 -0.057057343 -0.016869385
-0.051265683 0.0068280287 0.042465184 -0.01759432 -0.01753595 -0.017352616 0.025133895 0.005112405
0.01930472 -0.018803384 -0.017221598 -0.06506662 -0.023632906 -0.04516486 -0.063373 -0.00437867
-0.025603319 0.008748201 -0.06258518 -0.022111136 -0.043040276 -0.07558623 -0.01400346 -0.017954638
-0.07458463 -0.07020533 -0.048910167 -0.030522045 0.045137987 0.028467083 0.0535727 0.01100631
0.050421182 -0.007038543 0.008917508 0.042778473 0.03394166 -0.06760165 -0.039158463 -0.015503573
-0.012602761 -0.07516003 -0.060869627 -0.06589326 -0.06839533 -0.05435782 -0.031700376 0.017087637
0.05336283 0.0050992053 0.012951486 0.027752725 0.007692933 0.02807382 0.044620525 0.04052911
0.06454089 -0.030289471 0.057029076 0.089818336 0.0702092 0.020603126 0.07344836 0.030478355
-0.013780582 -0.0073645213 0.039037198 0.032902807 -0.025727103 0.046733048 -0.024290217 -0.027536076
0.04727701 -0.0508014 -0.046415832 -0.075936675 -0.14027637 -0.121057674 -0.13109636 -0.051890053
-0.053568114 -0.002497727 -0.05122049 -0.005958279 -0.075275235 -0.015535568 -0.05107145 -0.05766954
-0.01246096 0.011028519 -0.041686185 0.015404982 0.042091403 0.026602108 0.023603218 0.0121809775
-0.0096252905 0.035093315 -0.007125371 -0.0017372618 0.048750922 -0.010816871 0.0588948 0.016386727
0.044582717 -0.008228863 -0.0043016626 0.007956924 0.008532489 -0.014168294 0.02235931 -0.0058060135
0.011974732 0.02650375 0.019020021 0.021149984 0.020020694 -0.017036535 -0.011912888 -0.013118054
-0.016673835 -0.03477343 0.0072500613 -0.022283584 -0.024942389 0.007272134 0.019471806 0.030169614
0.04262939 -0.026745476 0.0005147303 0.05449591 -0.02306461 0.032257657 -0.021764787 0.039304968
0.02075656 0.003189207 0.0025727141 -0.023061804 0.038891718 -0.021991717 0.023713926 -0.019022087
-0.015063796 -0.047085185 -0.013159832 -0.07313009 -0.030424453 -0.07238679 -0.036269948 -0.07488401
-0.09758538 -0.07675329 0.07013482 0.041371055 0.057727523 0.07718586 0.13010933 0.07908559
0.0063044773 -0.030057592 -0.039110016 -0.061027016 0.009626931 -0.017360019 0.0018102628 -0.044903062
-0.04055718 0.0022478902 0.007306916 -0.01600126 0.03533935 -0.033329464 -0.0032475512 0.006597325
0.01566875 0.023945633 -0.004523143 0.0486786 0.030483274 -0.06381886 -0.19639622 -0.122567266
-0.0984025 -0.13029602 -0.04094866 -0.0759351 -0.10521236 -0.07364449 -0.015060524 -0.10094524
-0.018420275 -0.09022856 -0.13695177 -0.0661797 -0.11077571 -0.05015725 -0.009161707 -0.10492784
-0.011096058 -0.003831334 -0.054458063 -0.094275445 -0.027107425 0.0057916925 -0.08377538 -0.092771985
0.022353653 0.04346028 -0.031661075 0.04745084 -0.029552573 0.0045835837 0.011739975 -0.019849738
0.038858153 -0.04250766 0.01684291 -0.05421228 -0.082768835 -0.13935207 -0.07306103 0.028931648
-0.023922613 -0.10200046 0.02135618 0.008991767 -0.022977304 0.016641371 0.034459718 0.050382264
0.038721994 -0.019581394 0.005123743 -0.039891213 -0.0142793665 -0.049486306 -0.06946501 -0.053355444
-0.008301148 -0.04973619 0.008949564 0.007211253 -0.008160427 0.01812428 -0.043313425 0.021573527
00000000: 691c 84bd bcc3 87bd a06f a7bd 31d3 afbd
00000010: 4ab9 c3bd 035c dabd f6b4 69bd aa31 8abc
00000020: f7fb 51bd a8bd df3b f9ef 2d3d f721 90bc
00000030: 8da7 8fbc 1327 8ebc 99e5 cd3c f685 a73b
00000040: ef24 9e3c 8e09 9abc 4f14 8dbc a641 85bd
00000050: cc99 c1bc cafe 38bd b4c9 81bd f27a 8fbb
00000060: 0dbe d1bc 9d54 0f3c a92c 80bd 6a22 b5bc
00000070: 004b 30bd f4cc 9abd c56e 65bc 9b15 93bc
00000080: d4bf 98bd d0c7 8fbd 0756 48bd 5e09 fabc
00000090: 9ce2 383d cd33 e93c 0c6f 5b3d cf53 343c
000000a0: 7186 4e3d 94a3 e6bb bd1a 123c 7b38 2f3d
000000b0: 6906 0b3d bc72 8abd a064 20bd b302 7ebc
000000c0: d07b 4ebc 80ed 99bd 6e52 79bd 0cf3 86bd
000000d0: da12 8cbd 4ea6 5ebd 41d8 01bd 5ffb 8b3c
000000e0: fc92 5a3d 3c17 a73b 7832 543c af59 e33c
000000f0: 0015 fc3b 11fb e53c 03c4 363d da01 263d
00000100: 042e 843d a021 f8bc 5297 693d adf2 b73d
00000110: d7c9 8f3d e3c7 a83c 186c 963d bead f93c
00000120: f3c7 61bc 1552 f1bb 78e5 1f3d 18c5 063d
00000130: a5c1 d2bc 276b 3f3d 47fc c6bc 5693 e1bc
00000140: 8aa5 413d 2115 50bd 871e 3ebd b084 9bbd
00000150: 9ca4 0fbe 16ed f7bd 203e 06be aa8a 54bd
00000160: 3d6a 5bbd e8b0 23bb 94cc 51bd ab3d c3bb
00000170: e729 9abd e588 7ebc 4c30 51bd e536 6cbd
00000180: 0e29 4cbc f6b0 343c 22bf 2abd 2d65 7c3c
00000190: 0968 2c3d aaec d93c 895b c13c b992 473c
000001a0: 65b3 1dbc 02be 0f3d f27b e9bb d5b4 e3ba
000001b0: 0caf 473d 3f39 31bc ac3b 713d 753d 863c
000001c0: 5e9c 363d 5ad2 06bc f6f4 8cbb c25d 023c
000001d0: dacb 0b3c 2222 68bc df2a b73c 5f40 bebb
000001e0: ab31 443c 641e d93c e0cf 9b3c bb42 ad3c
000001f0: 7002 a43c 3490 8bbc 462e 43bc 1bed 56bc
00000200: 9197 88bc 966e 0ebd ec91 ed3b 108c b6bc
00000210: fb53 ccbc 154b ee3b 5683 9f3c 4426 f73c
00000220: 289c 2e3d 5419 dbbc f7ee 063a 1a37 5f3d
00000230: fef1 bcbc 9b20 043d 114c b2bc 3ffe 203d
00000240: a909 aa3c 0402 513b fb9a 283b 1cec bcbc
00000250: ec4c 1f3d f927 b4bc b543 c23c 35d4 9bbc
00000260: 24ce 76bc 65dc 40bd 569c 57bc 3bc5 95bd
00000270: b43c f9bc 863f 94bd cc8f 14bd ca5c 99bd
00000280: d8da c7bd d430 9dbd d8a2 8f3d b274 293d
00000290: b273 6c3d 9f13 9e3d 613b 053e a0f7 a13d
000002a0: ca95 ce3b 573b f6bc d331 20bd 77f7 79bd
000002b0: 46ba 1d3c 9936 8ebc 5746 ed3a 46ec 37bd
000002c0: 491f 26bd 5751 133b db6e ef3b 1315 83bc
000002d0: ffbf 103d 7a84 08bd ded4 54bb 602e d83b
000002e0: c05b 803c a229 c43c e036 94bb 3663 473d
000002f0: 0fb8 f93c 76b3 82bd 171c 49be 8c04 fbbd
00000300: 4087 c9bd 526c 05be c8b9 27bd dd83 9bbd
00000310: 9479 d7bd ecd2 96bd 6bc0 76bc 61bc cebd
00000320: 1ee6 96bc c0c9 b8bd 163d 0cbe 3989 87bd
00000330: 60de e2bd b071 4dbd fc1a 16bc 68e4 d6bd
00000340: 3ecc 35bc 1e17 7bbb 6b0f 5fbd 7c13 c1bd
00000350: 6410 debc 3dc8 bd3b 6d92 abbd 3dff bdbd
00000360: 021f b73c 6803 323d 0baf 01bd d05b 423d
00000370: 3d18 f2bc e331 963b 0659 403c eb9b a2bc
00000380: ba29 1f3d 831c 2ebd 24fa 893c b20d 5ebd
00000390: b582 a9bd 4fb2 0ebe 05a1 95bd 1002 ed3c
000003a0: 5bf9 c3bc 9ee5 d0bd 28f3 ae3c 3452 133c
000003b0: e63a bcbc 7c53 883c a225 0d3d a25d 4e3d
000003c0: f49a 1e3d 2969 a0bc 12e5 a73b f864 23bd
000003d0: 01f4 69bc 27b2 4abd ac43 8ebd 3d8b 5abd
000003e0: 8a01 08bc 2db8 4bbd 31a1 123c 604c ec3b
000003f0: 50b3 05bc 5f79 943c 6b69 31bd f7ba b03c

exp_avg f4 [32, 64, 3, 3]
1.8126798e-07 8.394322e-07 5.8207394e-07 1.1750491e-06 3.024685e-06 1.8487426e-06 9.677602e-07 1.7419344e-06
4.3495362e-07 -6.392429e-06 -9.241037e-06 -1.1761368e-05 -9.343019e-06 -1.1715618e-05 -1.5925558e-05 -9.350247e-06
-1.2089424e-05 -1.565692e-05 2.753121e-06 2.622962e-06 2.5332042e-06 2.6914283e-06 3.3125389e-06 3.622183e-06
2.9833764e-06 3.25161e-06 2.762176e-06 6.355521e-07 1.6048708e-06 1.4569231e-06 8.5570434e-07 1.7412466e-06
1.6734306e-06 1.1737451e-06 2.0297837e-06 1.5236791e-06 1.2801688e-06 -1.1341874e-05 -1.2718789e-05 -7.820467e-06
-2.3398177e-05 -2.1553456e-05 -8.315576e-06 -2.3146e-05 -2.3953859e-05 -1.9050141e-06 3.5926548e-09 3.2140977e-07
-1.1638541e-06 1.6928566e-06 1.6529034e-06 -1.1916112e-06 1.0746224e-06 1.7613528e-06 -6.3262996e-05 -7.3172945e-05
-7.79415e-05 -6.8270674e-05 -7.939731e-05 -8.30524e-05 -6.704546e-05 -7.730986e-05 -8.3187384e-05 3.988163e-06
9.258524e-07 2.6339528e-06 2.6172763e-06 -9.1765025e-07 9.934153e-07 2.1146786e-06 -1.8320236e-06 -6.7578384e-07
8.437877e-06 -1.1821348e-06 -6.347385e-06 1.6409261e-07 -1.1097745e-05 -1.5564186e-05 -4.5587356e-07 -1.28227375e-05
-1.587209e-05 -2.158476e-07 4.1678666e-07 1.7102938e-07 -2.959981e-07 3.008946e-07 6.870902e-08 -1.1067169e-06
-9.847486e-07 -1.3107573e-06 -3.9269733e-07 -1.2070897e-06 1.3411476e-06 -6.8842206e-07 -2.073058e-06 2.3916741e-06
-1.8288014e-06 -1.9295442e-06 2.056183e-06 -1.9856454e-05 -2.4809238e-05 -2.7134787e-05 -2.4388119e-05 -2.9812636e-05
-3.2977972e-05 -2.9062372e-05 -3.5987636e-05 -4.0695206e-05 -2.1702072e-05 -2.5769003e-05 -2.8005441e-05 -2.5930985e-05
-3.131199e-05 -3.2319986e-05 -2.670475e-05 -3.0533018e-05 -3.204984e-05 3.2244895e-06 -6.9003477e-07 -9.964747e-07
1.2209037e-07 -5.8336536e-06 -5.9621966e-06 -5.0747127e-07 -6.3260222e-06 -7.98064e-06 -8.583895e-06 -1.4087815e-05
-1.6373146e-05 -1.210943e-05 -1.6957261e-05 -1.9042229e-05 -1.0901685e-05 -1.5576306e-05 -1.8456605e-05 -4.679714e-05
-5.2663614e-05 -4.9022223e-05 -5.1806768e-05 -6.026667e-05 -5.5668217e-05 -5.225193e-05 -6.149938e-05 -5.8710404e-05
-0.00014343407 -0.00016360292 -0.00016839443 -0.00015687484 -0.00017898687 -0.00018363471 -0.00015805458 -0.00017959382
-0.00018615449 -9.751095e-07 -2.0492955e-07 -1.2352288e-06 3.7100006e-07 1.4864852e-06 -3.959005e-07 -1.2285457e-07
1.374852e-06 -3.6250788e-07 1.6450741e-06 7.1195205e-07 8.3426283e-07 7.3756945e-07 -1.0595273e-06 3.7972654e-07
1.8543709e-06 1.6358184e-06 2.1319204e-06 2.7833385e-06 4.174823e-06 2.4976837e-06 2.1632154e-06 4.868794e-06
2.7458373e-06 4.2076454e-08 1.7025302e-06 6.762312e-07 1.6636921e-05 1.5181442e-05 1.3132028e-05 1.5502826e-05
1.5495454e-05 1.1078086e-05 1.387401e-05 1.3490432e-05 1.0157216e-05 -4.9432145e-07 1.2693828e-06 8.79849e-09
-1.8424942e-07 2.5044465e-06 -3.5625223e-07 -9.012373e-07 5.2459495e-07 -1.5273197e-06 8.878051e-08 1.1356761e-07
2.6914362e-08 2.8606993e-07 4.9486664e-07 6.561302e-07 4.5752944e-07 1.0304012e-06 2.9201237e-07 3.236242e-08
3.019773e-07 -2.0153163e-06 -2.8614144e-07 1.1593811e-06 -1.7636337e-06 -6.6147504e-07 6.662259e-07 -5.329079e-07
-2.9731666e-05 -3.1782052e-05 -3.8784336e-05 -3.4246383e-05 -3.7879716e-05 -4.4301043e-05 -3.3083288e-05 -3.562546e-05
-4.2867214e-05 -5.645025e-07 -6.345512e-07 -1.5329966e-06 1.2079401e-07 9.336322e-07 -1.7009613e-07 -6.09482e-08
9.1560037e-07 3.0648778e-07 -2.9884115e-05 -3.8815462e-05 -3.850715e-05 -3.4481105e-05 -4.498997e-05 -4.54896e-05
-3.438533e-05 -4.599832e-05 -4.6314697e-05 3.094298e-07 1.3650481e-06 4.7643385e-07 5.8528553e-07 3.0132758e-06
3.0788817e-06 -1.5871152e-07 4.2622042e-07 2.4546998e-06 -2.817449e-06 -6.861644e-06 -7.451887e-06 -5.9801164e-06
00000000: 90a2 4234 5755 6135 d13f 1c35 61b6 9d35
00000010: b1fb 4a36 5022 f835 fde3 8135 69cc e935
00000020: 9283 e934 8c7e d6b6 f409 1bb7 b152 45b7
00000030: f6bf 1cb7 328e 44b7 e097 85b7 01df 1cb7
00000040: aed3 4ab7 fb56 83b7 42c2 3836 2506 3036
00000050: 1e00 2a36 639e 3436 fc4c 5e36 a114 7336
00000060: 0436 4836 3c36 5a36 d35d 3936 cf9a 2a35
00000070: f166 d735 7f8b c335 8eb3 6535 c7b4 e935
00000080: a39a e035 9389 9d35 6b37 0836 3781 cc35
00000090: 44d2 ab35 fa48 3eb7 c862 55b7 a634 03b7
000000a0: 3447 c4b7 b2cd b4b7 2183 0bb7 a829 c2b7
000000b0: 85f0 c8b7 c9af ffb5 a7e2 7631 398e ac34
000000c0: b935 9cb5 1c36 e335 54d9 dd35 73ef 9fb5
000000d0: bf3b 9035 9f67 ec35 10ac 84b8 6d74 99b8
000000e0: 8674 a3b8 8a2c 8fb8 1b82 a6b8 6b2c aeb8
000000f0: c29a 8cb8 6a21 a2b8 e374 aeb8 0fd2 8536
00000100: 1888 7835 f7c2 3036 77a4 2f36 7254 76b5
00000110: 7d55 8535 e7e9 0d36 dae3 f5b5 8367 35b5
00000120: 6890 0d37 d8a9 9eb5 9ffb d4b6 6f31 3034
00000130: 7430 3ab7 d68f 82b7 c9be f4b4 3d21 57b7
00000140: 0e25 85b7 bdc3 67b4 b9c2 df34 33a4 3734
00000150: abe9 9eb4 a48a a134 2f8d 9333 818a 94b5
00000160: b42b 84b5 47ed afb5 e9d3 d2b4 4903 a2b5
00000170: 7b01 b435 01cc 38b5 de1e 0bb6 a680 2036
00000180: 2375 f5b5 517d 01b6 f4fc 0936 6991 a6b7
00000190: 6f1d d0b7 839f e3b7 1695 ccb7 2616 fab7
000001a0: d451 0ab8 f8ca f3b7 6ef1 16b8 25b0 2ab8
000001b0: d80c b6b7 832a d8b7 3aed eab7 5e86 d9b7
000001c0: fe54 03b8 528f 07b8 0404 e0b7 9410 00b8
000001d0: 416d 06b8 4f64 5836 d43a 39b5 9cbe 85b5
000001e0: f217 0334 b4be c3b6 e10e c8b6 2939 08b5
000001f0: 1e44 d4b6 96e4 05b7 8c03 10b7 b45a 6cb7
00000200: 1059 89b7 9b29 4bb7 713f 8eb7 e0bc 9fb7
00000210: 61e6 36b7 dda9 82b7 42d3 9ab7 0c48 44b8
00000220: 20e3 5cb8 369d 4db8 184b 59b8 d8c6 7cb8
00000230: 4b7d 69b8 1529 5bb8 3af9 80b8 d13f 76b8
00000240: ca66 16b9 d38c 2bb9 0993 30b9 c57e 24b9
00000250: 6cae 3bb9 118e 40b9 74bb 25b9 5951 3cb9
00000260: 7732 43b9 82e0 82b5 9b0a 5cb4 23ca a5b5
00000270: dc2d c734 3e83 c735 278c d4b4 02ea 03b4
00000280: 8e87 b835 b49e c2b4 51cc dc35 f91c 3f35
00000290: 1bf2 5f35 63fd 4535 1535 8eb5 38dd cb34
000002a0: b3e3 f835 4b8e db35 1d12 0f36 64c9 3a36
000002b0: 7515 8c36 e19d 2736 c22b 1136 9f5e a336
000002c0: 2045 3836 8db7 3433 7e82 e435 4186 3535
000002d0: 848f 8b37 ccb3 7e37 a151 5c37 110c 8237
000002e0: 3cfc 8137 04dc 3937 6bc4 6837 f754 6237
000002f0: e968 2a37 83b1 04b5 a95f aa35 2b28 1732
00000300: 18d6 45b4 1012 2836 ef42 bfb4 8eec 71b5
00000310: e4d1 0c35 4efe ccb5 9aa7 be33 74e2 f333
00000320: 4f31 e732 2795 9934 fad6 0435 ed20 3035
00000330: 5ea2 f534 514c 8a35 e0c5 9c34 dbfe 0a33
00000340: 721f a234 df3e 07b6 fb9e 99b4 089c 9b35
00000350: feb5 ecb5 3890 31b5 b2d6 3235 270d 0fb5
00000360: 4468 f9b7 b84d 05b8 5dac 22b8 c6a3 0fb8
00000370: 09e1 1eb8 e2cf 39b8 e9c2 0ab8 8c6c 15b8
00000380: 52cc 33b8 5188 17b5 0756 2ab5 5dc1 cdb5
00000390: 9bb3 0134 b79e 7a35 aba3 36b4 a1e2 82b3
000003a0: 94c7 7535 5c8b a434 a6af fab7 c9cd 22b8
000003b0: bd82 21b8 ce9f 10b8 9db3 3cb8 16cc 3eb8
000003c0: f838 10b8 52ee 40b8 0742 42b8 b51f a634
000003d0: b236 b735 92c8 ff34 841c 1d35 af37 4a36
000003e0: c99e 4e36 4a6a 2ab4 4ad3 e434 6cbb 2436
000003f0: 6813 3db6 133d e6b6 390b fab6 cfa8 c8b6

exp_avg_sq f4 [32, 64, 3, 3]
1.084004e-11 1.0450479e-11 1.5161023e-11 2.6866296e-11 3.7835245e-11 4.1326675e-11 3.9256723e-11 5.2601118e-11
5.5444344e-11 6.243681e-08 6.391794e-08 6.4354396e-08 6.319963e-08 6.43889e-08 6.5027166e-08 6.2274204e-08
6.354176e-08 6.381364e-08 6.362476e-10 6.3587485e-10 6.895238e-10 6.7160827e-10 6.990144e-10 7.3971756e-10
7.289317e-10 7.533083e-10 8.0128276e-10 2.4223168e-10 2.2191432e-10 2.4211175e-10 2.3407914e-10 2.1696685e-10
2.3390462e-10 2.6192565e-10 2.389197e-10 2.593984e-10 6.2769334e-07 6.435678e-07 6.405345e-07 6.3463006e-07
6.503631e-07 6.4789214e-07 6.2906577e-07 6.4415735e-07 6.4074396e-07 1.9174922e-09 1.8346199e-09 1.9053736e-09
1.858847e-09 1.7694395e-09 1.8461191e-09 1.9196957e-09 1.8215629e-09 1.8981596e-09 4.5630068e-07 4.671136e-07
4.6878836e-07 4.5828284e-07 4.697439e-07 4.7058188e-07 4.5177092e-07 4.621934e-07 4.631847e-07 9.530061e-10
1.0603811e-09 9.857123e-10 1.0067469e-09 1.1249042e-09 1.064698e-09 9.853888e-10 1.073803e-09 1.0200484e-09
6.139858e-07 6.327049e-07 6.3757903e-07 6.198291e-07 6.3696126e-07 6.438295e-07 6.1258856e-07 6.3084195e-07
6.357203e-07 4.3312407e-12 4.054052e-12 4.781947e-12 1.0474548e-11 1.4617007e-11 1.306837e-11 1.5025196e-11
1.9873509e-11 1.9405895e-11 5.181162e-10 4.795382e-10 3.6074524e-10 5.510932e-10 5.152821e-10 3.866278e-10
5.875962e-10 5.6573685e-10 4.2378445e-10 2.587622e-07 2.636326e-07 2.6397635e-07 2.5958764e-07 2.6428341e-07
2.6479643e-07 2.5790322e-07 2.6250387e-07 2.6280148e-07 4.5659075e-08 4.6723198e-08 4.667511e-08 4.5843095e-08
4.711339e-08 4.7075705e-08 4.5236735e-08 4.6424432e-08 4.6429633e-08 5.3154864e-08 5.4600847e-08 5.4332915e-08
5.386179e-08 5.531437e-08 5.5179196e-08 5.3254613e-08 5.46488e-08 5.4451583e-08 9.16061e-08 9.300578e-08
9.3959216e-08 9.152286e-08 9.3273734e-08 9.380417e-08 8.9997556e-08 9.140348e-08 9.2208396e-08 1.5524229e-07
1.588369e-07 1.5683673e-07 1.5667617e-07 1.5998923e-07 1.5849979e-07 1.5594358e-07 1.5925052e-07 1.5737388e-07
1.0775055e-06 1.1039315e-06 1.1040795e-06 1.0885648e-06 1.1148493e-06 1.1161909e-06 1.0794329e-06 1.1051351e-06
1.1043379e-06 2.7459122e-11 4.314264e-11 5.0395216e-11 2.423197e-11 4.513113e-11 5.2051946e-11 1.9191324e-11
3.4570354e-11 4.386731e-11 1.3819642e-11 1.8127496e-11 1.4855612e-11 1.3791401e-11 1.9643072e-11 1.571451e-11
7.8041705e-12 8.020716e-12 6.87226e-12 1.0130516e-08 1.01947055e-08 1.039557e-08 1.0465536e-08 1.0467495e-08
1.0714708e-08 1.0901714e-08 1.0932709e-08 1.1194134e-08 2.3374387e-08 2.469261e-08 2.5447491e-08 2.3544912e-08
2.5005113e-08 2.5628056e-08 2.3115945e-08 2.447654e-08 2.51421e-08 2.4182246e-11 2.230072e-11 4.12561e-11
2.8806532e-11 3.7235107e-11 6.2256915e-11 4.192804e-11 5.4955235e-11 7.739556e-11 8.101218e-13 1.010277e-12
1.9553426e-12 1.2070358e-12 2.3654425e-12 3.4883743e-12 2.0310663e-12 3.5745682e-12 4.280264e-12 9.804352e-13
3.389059e-12 5.390053e-12 6.840648e-13 1.609771e-12 5.5190726e-12 7.3887044e-13 9.089161e-13 2.8200675e-12
3.39747e-08 3.525035e-08 3.6185803e-08 3.454662e-08 3.59009e-08 3.682325e-08 3.4100292e-08 3.5274184e-08
3.6191054e-08 1.6173354e-11 2.5141163e-11 2.7707467e-11 9.982133e-12 1.7893546e-11 2.3196247e-11 4.9100025e-12
6.737702e-12 1.1131522e-11 2.7743607e-07 2.837906e-07 2.8244511e-07 2.8052156e-07 2.8629572e-07 2.8574902e-07
2.782229e-07 2.842699e-07 2.829818e-07 2.2028788e-09 2.144886e-09 2.1973126e-09 2.2334723e-09 2.156628e-09
2.2471334e-09 2.32266e-09 2.2479012e-09 2.3230782e-09 4.231633e-09 4.7477253e-09 4.3193005e-09 4.3702135e-09
00000000: 33b3 3e2d c6d8 372d 975b 852d 8551 ec2d
00000010: b366 262e b3c1 352e 24a7 2c2e 9857 672e
00000020: c8d8 732e 0015 8633 4243 8933 3433 8a33
00000030: 5db8 8733 2c46 8a33 10a5 8b33 9bbb 8533
00000040: 7474 8833 eb09 8933 f2e3 2e30 b7c9 2e30
00000050: ed88 3d30 3b9c 3830 c424 4030 ff54 4b30
00000060: 025e 4830 5c11 4f30 4341 5c30 142b 852f
00000070: 54ff 732f 331a 852f b6af 802f bd8e 6e2f
00000080: 2697 802f c2fe 8f2f f558 832f 149b 8e2f
00000090: c27e 2835 a4c1 2c35 32f1 2b35 725b 2a35
000000a0: 9d94 2e35 cfea 2d35 12dd 2835 28ea 2c35
000000b0: 97ff 2b35 e1c4 0331 f325 fc30 b0ef 0231
000000c0: 5d7a ff30 9e30 f330 8bba fd30 a5eb 0331
000000d0: 8c5a fa30 c770 0231 7df9 f434 9bc7 fa34
000000e0: c8ad fb34 ea09 f634 1c31 fc34 48a4 fc34
000000f0: ec8a f234 6123 f834 9fab f834 ecfa 8230
00000100: d8bc 9130 ab79 8730 c25d 8a30 0c9b 9a30
00000110: bb54 9230 496e 8730 1695 9330 c331 8c30
00000120: c8d0 2435 26d7 2935 1926 2b35 5562 2635
00000130: a5fb 2a35 a0d3 2c35 c470 2435 2157 2935
00000140: 5ea6 2a35 5964 982c a7a3 8e2c f33f a82c
00000150: 2c45 382d 9392 802d b5e6 652d bc29 842d
00000160: 2acf ae2d 31b2 aa2d 306b 0e30 80d0 0330
00000170: 6152 c62f bd7b 1730 c1a3 0d30 078d d42f
00000180: 6884 2130 3182 1b30 5cfa e82f 02ec 8a34
00000190: 6389 8d34 a2b8 8d34 745d 8b34 d6e2 8d34
000001a0: 5829 8e34 f375 8a34 42ee 8c34 2917 8d34
000001b0: af1a 4433 b3ac 4833 d477 4833 04e5 4433
000001c0: b859 4a33 4930 4a33 514a 4233 3464 4733
000001d0: ec69 4733 644c 6433 4482 6a33 ac5b 6933
000001e0: aa55 6733 cb92 6d33 2bfe 6c33 11ba 6433
000001f0: feb6 6a33 26de 6933 fcb8 c433 78ba c733
00000200: a0c6 c933 398b c433 c74d c833 6371 c933
00000210: ae44 c133 9849 c433 1a04 c633 adb0 2634
00000220: c18c 2a34 f466 2834 d13a 2834 81c9 2b34
00000230: 1730 2a34 7271 2734 73fe 2a34 9afa 2834
00000240: cf9e 9035 cc2a 9435 e22f 9435 cd1a 9235
00000250: eea1 9535 07d0 9535 08e1 9035 2754 9435
00000260: c338 9435 7288 f12d 4bbe 3d2e f8a3 5d2e
00000270: 8c25 d52d 237d 462e 48ed 642e 05cf a82d
00000280: c20a 182e 33ee 402e 221e 732d 7e73 9f2d
00000290: ddab 822d f39e 722d 44c8 ac2d ee39 8a2d
000002a0: dc4a 092d 181a 0d2d d1cb f12c 7b0a 2e32
000002b0: ca24 2f32 3398 3232 eacb 3332 88d4 3332
000002c0: c913 3832 3f4a 3b32 90d2 3b32 5250 4032
000002d0: d2c8 c832 a01b d432 a097 da32 cf3f ca32
000002e0: d3ca d632 b124 dc32 8090 c632 7b40 d232
000002f0: 10f8 d732 94b5 d42d c228 c42d 3d72 352e
00000300: 8b62 fd2d 01c3 232e 87e7 882e c766 382e
00000310: 18b2 712e d431 aa2e 6e07 642b 112f 8e2b
00000320: 5298 092c 0ce0 a92b 0674 262c f778 752c
00000330: 70ec 0e2c b289 7b2c 3199 962c e7fb 892b
00000340: dc7b 6e2c 48a5 bd2c 108c 402b 1d8e e22b
00000350: 632f c22c 3af9 4f2b 4fd6 7f2b d271 462c
00000360: 94eb 1133 2b66 1733 b66a 1b33 6960 1433
00000370: 7531 1a33 9727 1e33 ab75 1233 6080 1733
00000380: 7c70 1b33 2843 8e2d de24 dd2d abb7 f32d
00000390: 889b 2f2d af64 9d2d 4e09 cc2d 5fc1 ac2c
000003a0: d30f ed2c ebd3 432d 86f2 9434 e25b 9834
000003b0: f6a2 9734 979a 9634 2fb4 9934 0c69 9934
000003c0: aa5e 9534 c29d 9834 b9ec 9734 7461 1731
000003d0: 3c65 1331 88ff 1631 a97b 1931 cd33 1431
000003e0: fd6b 1a31 ab9c 1f31 7f79 1a31 06a4 1f31
000003f0: d665 9131 6f21 a331 f868 9431 ce28 9631

exp_avg_sq f4 [32]
-0.02382467 -0.029347789 0.04637042 0.010322676 0.022460984 0.061659165 -0.039294094 0.055107813
0.066116706 -0.004300467 0.009277838 0.063867435 0.059025705 0.016074583 0.032434978 -0.035233904
0.040013324 -0.00057929085 0.051059987 -0.041163817 0.044256102 -0.02790262 0.053311653 0.004136165
0.022970509 0.020814983 0.058385544 0.05039797 0.028525028 0.018466188 0.02545364 -0.013836284
00000000: f42b c3bc c66a f0bc e9ee 3d3d 7120 293c
00000010: 1900 b83c 528e 7c3d d8f2 20bd bbb8 613d
00000020: 3268 873d efea 8cbb 1302 183c eecc 823d
00000030: f0c4 713d d8ae 833c 8ada 043d 6d51 10bd
00000040: 03e5 233d 8ddb 17ba 4724 513d 649b 28bd
00000050: e345 353d 0994 e4bc 525d 5a3d ab88 873b
00000060: a62c bc3c 2f84 aa3c ae25 6f3d 1a6e 4e3d
00000070: 52ad e93c 6746 973c 2784 d03c 95b1 62bc

exp_avg f4 [32]
-0.00011414535 -8.743757e-05 -7.020519e-05 -8.635823e-05 -0.00015356045 -0.00011418321 -1.3468468e-24 2.3257588e-05
-0.0001870586 -0.00017275101 1.0231898e-06 2.3350071e-06 -0.00015995352 -5.7131918e-05 -4.3384127e-05 4.8071714e-13
-8.244437e-05 -9.4416995e-05 -1.9807725e-05 9.324643e-10 -0.00013817659 -1.6030975e-13 -0.000103282044 1.5958329e-06
-0.00013174051 -0.00019327723 -0.00017937325 -2.0181067e-05 -8.959863e-05 -0.00018966144 1.0820161e-09 -8.657774e-05
00000000: 5161 efb8 b05e b7b8 203b 93b8 391b b5b8
00000010: 1205 21b9 a575 efb8 196a d097 4a19 c337
00000020: 2925 44b9 7f24 35b9 8954 8935 1eb3 1c36
00000030: 32b9 27b9 eea0 6fb8 5af7 35b8 524f 072b
00000040: fce5 acb8 bd01 c6b8 c428 a6b7 2c28 8030
00000050: 7fe3 10b9 247e 34aa 2099 d8b8 6730 d635
00000060: d323 0ab9 76aa 4ab9 2416 3cb9 834a a9b7
00000070: e6e6 bbb8 dbdf 46b9 0fb6 9430 1291 b5b8

exp_avg_sq f4 [32]
5.821941e-07 5.665855e-07 4.1878303e-07 3.2099624e-07 4.2612322e-07 2.5019688e-07 2.0133966e-14 5.9429567e-08
3.825024e-07 3.8817507e-07 7.598419e-13 8.4084206e-08 7.1720547e-07 4.786088e-08 3.2051403e-08 2.1932345e-13
3.3428094e-07 6.0761823e-07 1.0176174e-07 4.4893217e-14 6.313467e-07 4.5705756e-14 8.132711e-07 5.1704644e-11
7.312342e-07 1.1928029e-06 7.591205e-07 1.8741027e-08 8.897826e-07 5.330111e-07 6.204647e-13 8.0781166e-07
00000000: 1348 1c35 7617 1835 1ad5 e034 6355 ac34
00000010: eec5 e434 cc52 8634 c459 b528 803f 7f33
00000020: bb5a cd34 6066 d034 61e0 552b c891 b433
00000030: fc85 4035 988f 4d33 e4a8 0933 aeef 762a
00000040: 3977 b334 351b 2335 1c88 da33 5b2e 4a29
00000050: d179 2935 26d7 4d29 904f 5a35 4166 632e
00000060: 084a 4435 6518 a035 5dc6 4b35 f4fb a032
00000070: 65d9 6e35 3e14 0f35 32a5 2e2b 65d8 5835
