models/model_v1_drop_p_0.3_BCE_thres_0.0_Adam_LR_0.001_s_0_1702270054_5.pth (torch, 631565 bytes, 68 tensors)

state f4 [64, 1, 3, 3]
000000 0a 03 a7 3e d1 bb 4c 3e e6 a5 4f 3e 88 3e 00 bd
       0.32619506 0.19993521 0.20278129 -0.031309634
000010 df 80 3a be 49 6a 11 be e5 66 4e 3d 01 da 99 be
       -0.18213223 -0.14200701 0.050391097 -0.30049136
000020 36 e0 be bd 21 27 af 3b 7a 71 90 be 19 98 ae 3e
       -0.093201086 0.0053452407 -0.28211576 0.34100416
000030 0b cd 67 3d eb b7 7a 3e e4 fd 7c be 79 6b 72 3e
       0.05659203 0.24484222 -0.24706227 0.2367381
000040 d4 07 1d be 17 c7 ec 3d 83 ce 8b 3e 91 6b 87 3e
       -0.15335017 0.11561411 0.27305993 0.26449254
000050 96 d4 a3 be de 14 e6 bd ec fb 24 be 0b 8a eb 3d
       -0.31998128 -0.11234449 -0.16111726 0.11500939
000060 e9 ae 2a be ad c5 56 3e f0 6b 87 be 0a ca e8 3b
       -0.16668285 0.20973845 -0.26449537 0.007104163
000070 24 b4 53 bd 1f 5b 69 be 30 46 9b bd 60 df 99 be
       -0.051685467 -0.22788666 -0.075817466 -0.30053234
000080 33 cf 71 be 46 26 b0 be b1 1b 2f bd 42 b1 1a be
       -0.23614196 -0.344042 -0.042751018 -0.15106681
000090 18 27 5b bd 23 13 22 3e 5c bc 40 3e 5f 84 25 3e
       -0.05350408 0.15827613 0.18821853 0.16163777
0000a0 63 4d b9 3d 49 62 a4 3e 86 06 6b bd 4a 85 9d 3e
       0.090479635 0.32106236 -0.057379268 0.30765754
0000b0 5a 51 31 be 0f 92 b0 be fd 4b 11 bd f0 35 c9 bd
       -0.1731619 -0.34486434 -0.03547286 -0.09824741
0000c0 68 83 77 be 02 18 82 be 87 1b b4 bc e1 17 ac 3c
       -0.24171221 -0.25408942 -0.021985782 0.02100748
0000d0 b7 ed 21 bd 70 cb 70 bd 0c e9 8b 3e 9f c5 4e 3e
       -0.039533343 -0.058787763 0.27326238 0.20192574
0000e0 ba a0 28 be f2 ab 6a be fd 70 1c 3d 86 b0 1e 3e
       -0.16467562 -0.22917154 0.03819369 0.15497026
0000f0 b5 18 87 3e f0 5d 66 3e c4 02 7e 3e 2c 5d 83 3d
       0.26386037 0.22496772 0.24805743 0.064142555
000100 f7 49 44 be 61 04 87 3e a4 b5 f9 3d 8c f0 9e 3e
       -0.1916884 0.26370528 0.12192848 0.31042898
000110 83 f0 f9 bd 7c db bd be 30 d0 4c 3e f2 bf 97 bd
       -0.12204077 -0.37081516 0.20001292 -0.074096575
000120 2e e3 4e be 9d b9 a2 3e 97 f7 fa 3d b0 5d 86 3e
       -0.2020385 0.31782237 0.12254255 0.26243353
000130 22 2c 8d 3e be 3f 82 be c9 e9 93 3e 5d 82 97 3e
       0.27572733 -0.25439256 0.288893 0.29591647
000140 3a c9 88 be 33 57 05 3e b2 8d a3 3e b6 6f 66 3e
       -0.26716024 0.13021545 0.31944042 0.22503552
000150 cc 12 f4 bd ed ce 3f be b3 ca 1e be 30 d1 39 3e
       -0.11917648 -0.1873128 -0.15507011 0.18146205
000160 1a 52 94 be de 83 65 3d 41 c0 f9 bd bb ad 0b be
       -0.2896889 0.05603396 -0.12194873 -0.13640492
000170 33 c5 ac 3e f3 b2 62 be 1b fe 02 3d 03 53 8d 3e
       0.337442 -0.22138576 0.031980615 0.27602395
000180 6c fa 2f be 06 08 d5 bd 50 b7 4d bd e9 cb a0 3e
       -0.17185372 -0.10401921 -0.05022365 0.3140557
000190 30 fd 02 3e 07 4c 47 3e 11 ee 23 be c5 81 9f be
       0.12791896 0.19462596 -0.16008784 -0.31153694
0001a0 02 4b 60 3e 1d f6 54 3e 58 70 81 3e d2 2c 20 3e
       0.21903613 0.2079701 0.25281024 0.15642098
0001b0 84 a1 1b 3e 73 eb 0d 3e 05 1b f8 bd 57 28 6d bd
       0.15198332 0.13859348 -0.121145286 -0.0578998
0001c0 c3 16 ba 3e 51 36 2e 3d eb 4f 35 3d 93 52 46 be
       0.3634549 0.04253227 0.04426567 -0.19367437
0001d0 9a 64 9c 3e 3a 3a b9 3b d7 26 a3 3d 22 70 cd 3c
       0.30545503 0.005652693 0.079663925 0.025077883
0001e0 52 bd 88 3e 8b c9 b2 3e d1 b2 b0 3e af 49 31 be
       0.2670694 0.3491939 0.34511426 -0.17313264
0001f0 e2 96 39 bd 83 f7 d9 bd f2 3b 1f 3e a4 ad 21 3e
       -0.04530991 -0.10642912 0.15550211 0.15788895
000200 bd 98 9f be cd 90 87 be a1 b6 8b bd d1 11 af bc
       -0.31171218 -0.26477662 -0.06821943 -0.0213708
000210 b8 c3 71 3e ea ea d1 3d 83 89 75 3e 06 3f 70 be
       0.23609817 0.102498844 0.23978238 -0.23461542
000220 70 f5 9b 3e fe f9 9c 3e 18 8f 5a 3e 51 75 61 3d
       0.3046069 0.3065948 0.21343648 0.055043522
000230 b4 28 af 3e ba 88 87 3c 9a 7c 03 bc b9 90 80 bc
       0.34210742 0.016544688 -0.008025313 -0.01569401
000240 85 77 ce 3d 93 fc 04 3e 22 d9 90 3e fd ea 6b 3e
       0.1008139 0.12986974 0.2829066 0.2303886
000250 76 78 2e 3e 24 d7 bf 3d 1c 3e bd 3d de 93 82 3e
       0.1703814 0.09367207 0.09240362 0.2550344
000260 83 41 d9 bd a9 0f 95 3e de 58 27 be 03 90 4e be
       -0.106081985 0.2911351 -0.16342494 -0.20172124
000270 46 5c 36 3e 2f 46 5e be 87 3e 31 be 22 52 20 3e
       0.17808637 -0.2170646 -0.17309009 0.15656331
000280 ac 71 75 3c a5 33 63 3e c9 d1 6c be 50 72 75 be
       0.014980715 0.2218767 -0.23126902 -0.23969388
000290 86 45 84 3d 99 ba 5f 3e 6a fe 1f 3e 55 25 26 be
       0.06458573 0.21848525 0.15624395 -0.16225179
0002a0 9d a1 54 be 89 80 8c 3e b7 5d 1e 3e 92 47 42 3e
       -0.20764776 0.27441815 0.15465437 0.18972614
0002b0 af 93 4a be b8 af 73 3e a6 6e c7 bc ca a1 27 3d
       -0.197829 0.237975 -0.024344753 0.04092578
0002c0 73 ef 62 be b4 8e 52 bd 9e 8b 02 be ae 88 88 be
       -0.22161655 -0.051405624 -0.12748572 -0.26666778
0002d0 c2 81 74 3e 09 04 ce 3d dc 03 7b be 9d bf ef 3d
       0.23877624 0.100593634 -0.24513191 0.11706469
0002e0 dd 8d cc bd 9d 46 c0 be a9 32 d1 3d 03 d4 73 bd
       -0.09987996 -0.37553874 0.10214741 -0.059528362
0002f0 03 d8 45 3e f9 c1 21 3e 18 59 f3 bd 73 e2 37 3d
       0.19320683 0.15796651 -0.11882228 0.044893693
000300 ee 81 92 3e dd 77 41 be 83 be 05 3e 23 6f 59 be
       0.28614753 -0.1889338 0.13060956 -0.21233802
000310 99 96 75 be b7 69 81 3d f2 dd d8 3e f9 78 34 bd
       -0.2398323 0.06318992 0.4235683 -0.04406068
000320 d5 00 ae bd 2a f0 80 3d cb b6 91 be 70 27 4f bd
       -0.084962524 0.06295808 -0.28459772 -0.05057472
000330 70 29 57 bd ed ea 31 3e e2 ce 82 be 76 83 b5 be
       -0.052529752 0.17374773 -0.25548464 -0.3545186
000340 99 d4 39 be a0 16 e8 bd a9 b6 53 3e fd 15 eb 3e
       -0.18147506 -0.113324404 0.20675148 0.45915213
000350 f4 82 ee bc 38 a0 aa 3e 2e 53 9b bd 89 f3 0b be
       -0.029115178 0.33325362 -0.07584225 -0.1366712
000360 5b 6e d2 3d 04 ae 7e bd 99 b4 31 be 27 d4 91 3c
       0.10274955 -0.062177673 -0.17354049 0.017801357
000370 3d ab 53 bc bf a1 75 3e 12 72 d8 3d 14 18 14 bd
       -0.012919244 0.23987482 0.10568632 -0.036155775
000380 5d 28 95 be 57 06 3f 3d 0b e5 84 be 7c 73 69 bd
       -0.29132357 0.046636906 -0.25955996 -0.0569949
000390 65 1e c0 3c 4a f8 3a bd eb 79 80 be be e2 7b 3e
       0.023451993 -0.045646943 -0.25093016 0.24598214
0003a0 47 ce 5e 3e a1 5f 40 3d 8a d1 f9 bd 10 d6 ce 3d
       0.21758376 0.0469662 -0.121981695 0.10099423
0003b0 b9 93 58 3e 65 9f 08 3e 92 05 89 3d 84 df 7b 3d
       0.21150102 0.13342054 0.066905156 0.061492458
0003c0 3a 6b 8b 3d 42 57 6e 3d ed 71 8d bd d3 58 6a be
       0.06807561 0.058188684 -0.06906495 -0.22885446
0003d0 29 73 3a 3e 53 8a 38 3e 23 68 a2 be 64 dd 62 bb
       0.18207993 0.18021517 -0.31720075 -0.0034616822
0003e0 6b 23 7c be fa a4 95 3e 8c fb 8d bd 59 e0 53 be
       -0.24622886 0.2922743 -0.069327444 -0.2069105
0003f0 6f 7d 3a be 87 52 57 3e 23 f5 74 bd 27 8a a7 bc
       -0.18211912 0.21027575 -0.059804093 -0.020451618

exp_avg f4 [64, 1, 3, 3]
000000 de b8 24 b9 91 e4 1c b9 a5 de 23 b9 bf 04 04 b9
       -0.00015709127 -0.00014962467 -0.00015627833 -0.00012590269
000010 36 8d 67 b8 c8 05 f0 b8 03 69 2d b9 61 4c 1e b8
       -5.5206205e-05 -0.00011445169 -0.00016537686 -3.774127e-05
000020 ae ac a2 b8 66 e2 aa b8 97 1a e7 b8 43 49 b3 b8
       -7.756926e-05 -8.148402e-05 -0.00011019891 -8.549031e-05
000030 80 ea de b8 c8 e1 0a b9 1f 0b f8 b8 a4 b6 a5 b8
       -0.00010629464 -0.00013244816 -0.00011827633 -7.9018326e-05
000040 f4 27 fc b8 67 3c c7 b8 9c 5c 13 b8 13 86 9f 38
       -0.00012023738 -9.50031e-05 -3.513378e-05 7.606684e-05
000050 d0 d6 d2 38 b8 58 08 37 8c a2 fa 38 68 d2 e7 38
       0.00010053592 8.126888e-06 0.00011951206 0.000110541296
000060 31 68 34 36 2e 89 bd 38 57 f0 b5 38 05 be 61 b7
       2.6882738e-06 9.037774e-05 8.675519e-05 -1.3455287e-05
000070 ef 35 eb 37 c2 67 f3 22 d4 77 9f 37 50 28 b3 1d
       2.8039298e-05 6.597514e-18 1.9010076e-05 4.7422588e-21
000080 91 16 a1 21 2d 26 70 19 3e d1 9a 37 e0 5a 86 b6
       1.0915758e-18 1.2415419e-23 1.8455667e-05 -4.0040904e-06
000090 53 c0 9a b8 15 b2 da b8 76 50 82 b8 d6 99 c5 b8
       -7.3791154e-05 -0.000104282204 -6.21387e-05 -9.422346e-05
0000a0 02 0b 11 b9 e2 af c4 b8 1a f5 8f b8 b5 b9 df b8
       -0.00013832378 -9.378769e-05 -6.864425e-05 -0.00010668059
0000b0 2c 76 a0 b8 b5 64 4a 1e 2d 0a 8d 36 81 b3 65 b8
       -7.651406e-05 1.0714617e-20 4.203312e-06 -5.476503e-05
0000c0 86 78 8d 37 21 34 96 37 ce a1 53 b7 eb d2 b0 37
       1.6864633e-05 1.7905668e-05 -1.2614253e-05 2.1079051e-05
0000d0 b2 a1 26 38 a6 45 85 b7 47 4a f7 b8 22 2a 33 b9
       3.9728075e-05 -1.5887268e-05 -0.00011791713 -0.00017086466
0000e0 d0 ba e1 b8 8c 4f 14 b9 f8 74 54 b9 fa 94 18 b9
       -0.000107636326 -0.00014144013 -0.0002026147 -0.00014551348
0000f0 a4 99 d6 b8 39 a2 30 b9 1c 88 d0 b8 fd 77 b8 38
       -0.00010232933 -0.000168451 -9.943565e-05 8.796153e-05
000100 01 b7 94 38 4f 74 2a 39 4a f7 f4 38 1f e9 42 37
       7.091277e-05 0.00016255792 0.00011680888 1.1617579e-05
000110 b6 4c da 38 58 c3 82 39 55 a4 3b 39 63 a8 78 39
       0.000104093386 0.00024941075 0.00017894928 0.00023713852
000120 33 82 57 b8 fd 47 9c b8 8c b8 6e b8 0d a4 8f b8
       -5.1381252e-05 -7.4520685e-05 -5.6915494e-05 -6.849328e-05
000130 bf 27 c9 b8 54 97 97 b8 0d 1d 37 b8 82 77 ab b8
       -9.59183e-05 -7.228428e-05 -4.3657656e-05 -8.1761755e-05
000140 36 29 81 b8 16 18 0b b9 43 50 3f b9 78 af 30 b9
       -6.1588755e-05 -0.00013265046 -0.00018245079 -0.00016850035
000150 97 68 ce b8 4f 6c a0 b8 6a eb dd b8 00 6d dd b8
       -9.842327e-05 -7.6495686e-05 -0.000105819505 -0.00010558404
000160 60 05 0a b8 44 95 d3 b8 37 58 ef b8 d4 52 da b8
       -3.290677e-05 -0.00010089067 -0.000114128394 -0.00010410478
000170 1e 4b 20 b9 fc cd c7 b8 30 09 a2 b8 71 02 2a b9
       -0.00015286772 -9.527427e-05 -7.726473e-05 -0.00016213373
000180 d8 45 e9 b8 e7 4c 74 b8 31 f8 0f b9 cf 36 f7 38
       -0.00011123315 -5.8245754e-05 -0.00013730001 0.00011788087
000190 db eb 96 38 61 9b d5 38 e4 39 9b 38 c6 12 27 37
       7.196489e-05 0.00010185573 7.401759e-05 9.958347e-06
0001a0 4e c1 81 38 9a ab b6 38 5a 1e 20 38 d7 54 9f 38
       6.187205e-05 8.7103996e-05 3.817524e-05 7.5975135e-05
0001b0 48 94 b6 b9 3a ac c2 b9 97 aa a8 b9 de 11 c1 b9
       -0.00034824223 -0.00037130882 -0.00032170556 -0.0003682514
0001c0 ba 7b e0 b9 30 28 c3 b9 06 ce ab b9 79 5a c7 b9
       -0.00042816793 -0.0003722324 -0.0003276916 -0.00038023645
0001d0 f2 68 a6 b9 b1 b3 7b b8 a7 88 8c b8 51 91 93 b7
       -0.00031740178 -6.0010414e-05 -6.701174e-05 -1.7591434e-05
0001e0 10 f1 87 b8 f7 04 bf b8 8c 99 5f b8 a1 5b 98 b8
       -6.482203e-05 -9.1085145e-05 -5.3310345e-05 -7.264992e-05
0001f0 f2 83 e1 b8 11 b4 53 b8 10 dc 6e b8 91 07 95 b8
       -0.00010753413 -5.047402e-05 -5.694857e-05 -7.106283e-05
000200 cc 46 70 b8 80 b9 8d b8 15 7e bf b8 81 21 80 b8
       -5.7286394e-05 -6.757956e-05 -9.131074e-05 -6.109756e-05
000210 79 88 49 b8 81 03 a3 b8 c7 35 3c b8 d8 f1 01 b9
       -4.8049234e-05 -7.773098e-05 -4.4872777e-05 -0.00012392492
000220 75 e8 17 b9 c6 a6 e2 b8 0f 6b 25 b9 19 b2 54 b9
       -0.00014487079 -0.00010807584 -0.00015775509 -0.00020284242
000230 c8 d0 34 b9 66 3b 17 b9 4f 73 3f b9 25 8a 21 b9
       -0.00017243915 -0.0001442261 -0.00018258135 -0.0001540562
000240 67 c8 87 b7 ab 71 f2 b7 c6 e2 67 b7 93 54 c5 b7
       -1.6186574e-05 -2.8901579e-05 -1.3821473e-05 -2.3523613e-05
000250 97 ac 45 b8 02 f6 ea b7 2e 86 98 b7 9d 7a 25 b8
       -4.7129197e-05 -2.800953e-05 -1.8182294e-05 -3.9453258e-05
000260 f3 c8 e5 b7 a8 15 3c b8 56 7f 11 38 88 89 3a 35
       -2.7392502e-05 -4.4842862e-05 3.4689285e-05 6.9490534e-07
000270 ff 3a 06 39 7f 12 71 39 b7 aa 28 39 44 12 a8 38
       0.00012801214 0.00022990441 0.00016085325 8.0142665e-05
000280 cc a3 2c 39 b1 c5 a3 38 09 35 a4 37 12 f3 fc 37
       0.00016464217 7.8092686e-05 1.957502e-05 3.015393e-05
000290 4f 1b 37 39 96 e1 4e b8 07 46 b7 b8 00 4c c7 b6
       0.00017462413 -4.932432e-05 -8.7391636e-05 -5.9395097e-06
0002a0 76 58 8e b8 2c 60 5a b8 f0 50 05 39 59 a2 db 38
       -6.787565e-05 -5.2064817e-05 0.0001271402 0.000104729734
0002b0 ac be 30 39 76 3c ba 38 d4 db d8 38 b7 d7 41 39
       0.00016855699 8.880433e-05 0.00010340629 0.00018486274
0002c0 d2 ad ad 38 f8 d8 0c 38 57 c5 eb 38 db 2b 42 b7
       8.2816594e-05 3.358067e-05 0.000112424306 -1.1573512e-05
0002d0 c0 32 be b8 a4 f3 e3 b7 3f df 39 38 cd ef 02 b9
       -9.069359e-05 -2.7173963e-05 4.431535e-05 -0.00012487099
0002e0 2c 73 ed b7 60 b5 fb 37 b8 d5 1a b9 a4 ac b2 b8
       -2.8306233e-05 3.0005991e-05 -0.00014766201 -8.519858e-05
0002f0 10 3d b2 b8 f2 bd d1 38 56 17 f4 38 23 b2 9b 38
       -8.499075e-05 0.00010001277 0.00011639173 7.4241565e-05
000300 c6 ee 93 38 76 c5 3e 39 6a bd b0 37 ed 2a 59 39
       7.053981e-05 0.00018193372 2.1069038e-05 0.00020710724
000310 64 78 87 39 4e 6e 8a 38 99 62 b5 b8 e6 e9 df b7
       0.00025838905 6.6008986e-05 -8.649118e-05 -2.6692589e-05
000320 b5 43 63 b8 05 b5 da b8 ef 57 a2 b6 9c 9e 9b b7
       -5.4184075e-05 -0.000104287676 -4.838213e-06 -1.8551298e-05
000330 bb bb f8 b8 e2 5f 66 b8 eb ef 11 b9 9b c0 5f ba
       -0.00011860529 -5.492557e-05 -0.00013917654 -0.00085354754
000340 67 58 80 ba 16 c1 5a ba 4a a2 70 ba 37 db 8f ba
       -0.0009791971 -0.0008344812 -0.00091794564 -0.0010975365
000350 f2 7d 78 ba 59 22 6d ba 09 56 8f ba a0 46 74 ba
       -0.00094792165 -0.0009045951 -0.0010935675 -0.0009318385
000360 3b 16 48 36 45 79 70 37 11 dc 35 35 96 e2 7a 37
       2.9815262e-06 1.433335e-05 6.7747993e-07 1.4953917e-05
000370 58 99 f2 37 13 88 c9 37 16 74 c4 36 7a 91 df 37
       2.8920054e-05 2.4024432e-05 5.8547694e-06 2.6651414e-05
000380 63 60 3f 37 0a db 3a b9 63 12 97 b8 70 56 6e b8
       1.1406929e-05 -0.0001781994 -7.203666e-05 -5.6824123e-05
000390 1a a7 c2 b8 f0 5b 95 37 48 9e f4 36 87 82 09 b9
       -9.281766e-05 1.7804996e-05 7.290193e-06 -0.00013113963
0003a0 2b 61 03 b9 85 e2 c1 b8 64 bc d1 b8 b0 50 fd b8
       -0.00012529331 -9.24515e-05 -0.00010000987 -0.00012079009
0003b0 31 1e cd b8 f9 bf d8 b8 b9 49 13 b9 f0 de ea b8
       -9.780785e-05 -0.0001033544 -0.00014046476 -0.00011199515
0003c0 1b 68 9d b8 d7 96 e1 b8 ad 11 a3 b8 6b d5 35 b7
       -7.5057345e-05 -0.00010756932 -7.775738e-05 -1.0838131e-05
0003d0 a2 0c f8 38 33 c2 3c 38 4e dc d4 b7 ce a8 18 39
       0.000118279146 4.5003555e-05 -2.5374957e-05 0.00014558734
0003e0 1e f7 65 38 d6 51 dc b6 e5 d8 1c 39 e1 06 6a 38
       5.4828e-05 -6.566038e-06 0.00014958119 5.5796354e-05
0003f0 31 35 78 38 f5 93 69 39 f0 b1 4e 39 e2 7a b5 38
       5.9177346e-05 0.0002227573 0.00019711978 8.653641e-05

exp_avg_sq f4 [64, 1, 3, 3]
000000 d1 86 6b 35 41 cc 4b 35 84 1c 41 35 8d b8 2d 35
       8.7740506e-07 7.592062e-07 7.19396e-07 6.471608e-07
000010 b9 61 0f 35 e6 26 09 35 80 b3 12 35 dc 93 e7 34
       5.3413856e-07 5.109308e-07 5.4650445e-07 4.3134685e-07
000020 f2 cf e3 34 fb 0c e0 35 6d b1 e0 35 f3 d9 e4 35
       4.2433345e-07 1.6693078e-06 1.6740938e-06 1.7050755e-06
000030 8a 90 ea 35 e6 87 ef 35 29 15 e4 35 f2 7b e9 35
       1.7476425e-06 1.7846439e-06 1.6993482e-06 1.7395926e-06
000040 32 c7 e8 35 6c ad e4 35 3b 2f 44 36 af 25 38 36
       1.734332e-06 1.7037796e-06 2.9233768e-06 2.7440071e-06
000050 b2 2d 11 36 c3 0a 21 36 95 5e 1e 36 85 7f 13 36
       2.1633282e-06 2.3997134e-06 2.3598889e-06 2.1978933e-06
000060 01 94 0e 36 79 22 1e 36 c8 84 03 36 6d 31 34 33
       2.1245799e-06 2.35639e-06 1.959781e-06 4.195447e-08
000070 56 93 62 32 57 16 ce 30 d6 67 26 32 c2 e4 9f 2e
       1.3188432e-08 1.4994822e-09 9.686081e-09 7.2711184e-11
000080 3e 4d 8d 2e e6 e3 90 2c da 72 f0 31 96 2a 9c 32
       6.4256586e-11 4.118028e-12 6.9979764e-09 1.8180156e-08
000090 d4 bf 9f 35 e3 7a a5 35 c0 f3 a8 35 82 ba a0 35
       1.1902252e-06 1.2329223e-06 1.2587916e-06 1.197521e-06
0000a0 32 bb a6 35 56 13 aa 35 ea d2 9c 35 13 bc a2 35
       1.2422445e-06 1.2671615e-06 1.168429e-06 1.2124677e-06
0000b0 43 7b a1 35 3b a7 88 2e 51 7d 23 33 10 45 31 34
       1.2031309e-06 6.21427e-11 3.806537e-08 1.6509534e-07
0000c0 f5 0f 51 32 59 01 ce 32 1c 35 3c 34 78 8c 1a 34
       1.2169029e-08 2.398217e-08 1.7528185e-07 1.439347e-07
0000d0 06 1f 25 34 7d e4 a5 34 b9 2d 78 36 ae 3b 78 36
       1.5378109e-07 3.0899892e-07 3.6981494e-06 3.6989618e-06
0000e0 40 15 6c 36 e6 45 75 36 de fc 7c 36 ad a4 78 36
       3.517911e-06 3.6548531e-06 3.7698114e-06 3.7050734e-06
0000f0 49 f6 7a 36 88 dd 7d 36 a9 a7 7a 36 e4 8e f1 34
       3.739626e-06 3.7828886e-06 3.7350494e-06 4.4993715e-07
000100 4a 6f f2 34 a7 36 03 35 a9 7f f2 34 02 e4 05 35
       4.5156986e-07 4.888083e-07 4.5168898e-07 4.9878156e-07
000110 aa b5 ef 34 5a 22 ec 34 0d 79 f4 34 4b 06 ea 34
       4.4649397e-07 4.398342e-07 4.5536618e-07 4.3590475e-07
000120 a0 77 73 35 ac a5 76 35 8f a6 6a 35 a2 30 78 35
       9.069863e-07 9.1883226e-07 8.741417e-07 9.245797e-07
000130 28 cf 7a 35 94 44 6c 35 3f 86 74 35 25 93 76 35
       9.343371e-07 8.8016645e-07 9.1092437e-07 9.1856265e-07
000140 2c 4c 66 35 4d 65 ce 35 64 40 d3 35 07 a3 d0 35
       8.579252e-07 1.5377678e-06 1.5739465e-06 1.5544655e-06
000150 fc 1b c4 35 0a 9f c3 35 1c 6b c3 35 c8 53 bf 35
       1.4611282e-06 1.4574919e-06 1.4559805e-06 1.4254992e-06
000160 9b 61 b8 35 22 ec bd 35 49 26 07 35 2c cd 55 35
       1.3737475e-06 1.4150321e-06 5.034713e-07 7.964725e-07
000170 49 8d ad 35 6f ae ef 34 5c 9a 4c 35 10 92 a0 35
       1.2930624e-06 4.4644136e-07 7.6220545e-07 1.1963439e-06
000180 16 56 d2 34 0c 09 21 35 4e 52 6a 35 b9 ef c1 36
       3.9178184e-07 5.999034e-07 8.729156e-07 5.7797556e-06
000190 28 b6 c4 36 dd 87 c3 36 8c 5b be 36 ef 2a c3 36
       5.862461e-06 5.8272694e-06 5.6730987e-06 5.816451e-06
0001a0 38 f0 c9 36 d1 23 bd 36 be 99 c6 36 17 fd c2 36
       6.018232e-06 5.6368085e-06 5.918758e-06 5.811114e-06
0001b0 87 6f c7 36 e2 77 d9 36 db 47 c9 36 51 ec cf 36
       5.9436456e-06 6.48106e-06 5.998632e-06 6.1965916e-06
0001c0 53 ee ee 36 9c 34 dc 36 8f 4a c3 36 a6 52 d0 36
       7.1206973e-06 6.5626355e-06 5.8201326e-06 6.2085046e-06
0001d0 d7 51 d6 36 d0 73 be 36 c2 56 d2 36 6c 6e ca 36
       6.3872244e-06 5.6759236e-06 6.2685876e-06 6.032924e-06
0001e0 91 69 cb 36 f5 49 e5 36 3a 84 d9 36 b2 12 b8 36
       6.062161e-06 6.8333416e-06 6.482497e-06 5.4858037e-06
0001f0 a1 89 c8 36 95 5b c1 36 fb d6 d5 35 7a ab d9 35
       5.9764866e-06 5.7625098e-06 1.5932304e-06 1.6217666e-06
000200 4a 9a d4 35 c5 0c d9 35 65 db dd 35 8f a0 db 35
       1.5840135e-06 1.6171476e-06 1.6529635e-06 1.63635e-06
000210 3f e4 dd 35 57 97 e1 35 ac a6 df 35 fe b4 97 36
       1.6532211e-06 1.6807852e-06 1.6663303e-06 4.521221e-06
000220 78 7d ac 36 50 77 ae 36 7a 0b 9a 36 e0 11 aa 36
       5.140606e-06 5.199494e-06 4.5908937e-06 5.0684757e-06
000230 3e a4 af 36 e4 5c 90 36 1b 77 9b 36 65 99 9c 36
       5.2345267e-06 4.3023483e-06 4.6332257e-06 4.6670198e-06
000240 99 82 78 35 c6 f5 7d 35 88 0a 80 35 00 6f 7c 35
       9.2577244e-07 9.460749e-07 9.539808e-07 9.403884e-07
000250 80 19 81 35 cc 03 82 35 0d d3 79 35 76 55 7e 35
       9.61867e-07 9.68686e-07 9.306685e-07 9.4746736e-07
000260 f6 b5 7f 35 cb f6 ab 35 fa a6 6f 35 c7 13 44 35
       9.525969e-07 1.2812319e-06 8.927742e-07 7.304447e-07
000270 96 80 c0 35 68 80 8a 35 6d 35 6a 35 77 c4 d0 35
       1.4342538e-06 1.0319172e-06 8.724954e-07 1.5554386e-06
000280 ee da ac 35 54 f5 a0 35 1a 4f b0 34 10 bd c4 34
       1.2878716e-06 1.1992329e-06 3.284011e-07 3.6645406e-07
000290 37 29 33 35 cf 0a 0f 35 92 f0 34 35 64 d8 2c 35
       6.674267e-07 5.328738e-07 6.74053e-07 6.4389883e-07
0002a0 af 5e 08 35 c8 52 8d 35 32 48 93 35 1e e1 d5 35
       5.080173e-07 1.0529411e-06 1.0973365e-06 1.5935254e-06
0002b0 6f 3c 9c 35 76 50 b0 35 f5 e4 a1 35 ee 36 86 35
       1.1640494e-06 1.3136439e-06 1.206207e-06 9.999765e-07
0002c0 7c 12 67 35 10 22 84 35 13 25 4b 35 e3 83 31 35
       8.6081104e-07 9.84468e-07 7.5677343e-07 6.612956e-07
0002d0 3c 80 8d 35 73 70 55 35 c2 9a 22 35 fa d1 82 35
       1.054264e-06 7.951232e-07 6.0574905e-07 9.746866e-07
0002e0 39 af 43 35 36 c9 1b 35 3a 4d 8b 35 95 29 5a 35
       7.2898143e-07 5.80348e-07 1.0378783e-06 8.127184e-07
0002f0 c8 5e 4a 35 c2 03 48 36 27 eb 47 36 13 23 4c 36
       7.538879e-07 2.980451e-06 2.9790187e-06 3.0418785e-06
000300 13 00 4b 36 3d 94 4a 36 cb d1 4f 36 90 f9 45 36
       3.02494e-06 3.0186632e-06 3.096752e-06 2.9500552e-06
000310 fe 5a 49 36 17 1f 4d 36 0b 9c 4e 35 73 32 23 35
       3.0004298e-06 3.0565477e-06 7.696805e-07 6.0795645e-07
000320 7e 5a 04 35 c6 39 3c 35 ef ec 1b 35 7e 6a 02 35
       4.9305515e-07 7.011953e-07 5.8086783e-07 4.858374e-07
000330 82 49 25 35 65 31 18 35 4f 48 ef 34 81 8b 00 35
       6.157426e-07 5.669629e-07 4.456983e-07 4.788672e-07
000340 6d 6d fa 34 9d 39 f4 34 a0 f4 25 35 5f ca 21 35
       4.6645746e-07 4.549046e-07 6.1823266e-07 6.027166e-07
000350 b2 b6 00 35 91 25 4b 35 f9 d2 17 35 c9 ac ff 34
       4.794957e-07 7.567806e-07 5.655889e-07 4.762317e-07
000360 25 95 8b 35 d2 b6 85 35 ee 66 80 35 3d 08 8e 35
       1.0399714e-06 9.96248e-07 9.5667e-07 1.0582222e-06
000370 c5 17 89 35 97 e6 85 35 32 4e 8d 35 76 2a 87 35
       1.0214213e-06 9.976383e-07 1.0528076e-06 1.0070642e-06
000380 8c c6 80 35 ec db 5c 35 e9 e8 48 35 47 db 40 35
       9.594528e-07 8.2276415e-07 7.4844735e-07 7.1844664e-07
000390 da 31 72 35 05 d9 63 35 b7 c8 53 35 ef e7 87 35
       9.022457e-07 8.4879895e-07 7.8895704e-07 1.0125785e-06
0003a0 77 27 7f 35 5b e3 6b 35 40 0f 94 35 af d7 99 35
       9.505233e-07 8.787517e-07 1.1031298e-06 1.146216e-06
0003b0 80 16 9b 35 9a ac 98 35 13 f8 9d 35 ad 8b 9e 35
       1.1554948e-06 1.1375116e-06 1.1769611e-06 1.1812568e-06
0003c0 d6 ab 98 35 e9 49 9d 35 ca 80 9d 35 3e a9 75 35
       1.1374893e-06 1.1718922e-06 1.1734894e-06 9.151589e-07
0003d0 b4 97 b3 35 d0 cd bf 35 4a 0d 64 35 ab be 97 35
       1.3380691e-06 1.4290508e-06 8.4955957e-07 1.1305868e-06
0003e0 04 cc 8a 35 39 46 a6 35 b1 9c 9f 35 97 0d 90 35
       1.0341178e-06 1.2388401e-06 1.1892026e-06 1.0732791e-06
0003f0 83 be 90 35 1c 73 d0 35 cc d4 ac 35 1f 2f a7 35
       1.0784282e-06 1.5530709e-06 1.2876931e-06 1.2456184e-06

exp_avg_sq f4 [64]
000000 70 0a 00 bd 05 92 f0 3d e8 65 19 3e c1 f8 33 3e
       -0.031259954 0.11746601 0.1498028 0.17575361
000010 43 e0 df 3d b4 15 9a 3e d8 e0 f5 bd 64 dd 5a be
       0.109314464 0.30094683 -0.12005776 -0.21373516
000020 70 4a 75 3e 61 d2 55 be b6 76 fb 3d 8c e9 7f be
       0.23954177 -0.20881034 0.12278502 -0.24991435
000030 b0 54 54 be 9b a8 86 be ca 15 99 3e 0a 05 8f be
       -0.2073543 -0.2630051 0.29899436 -0.27933532
000040 86 80 59 3e 97 42 1e be bc 98 0e bd b0 fc b3 3e
       0.21240434 -0.1545509 -0.034813628 0.35153723
000050 6a 58 47 bc ae 47 15 bc b7 3b e3 3d c4 c0 bb bd
       -0.012167076 -0.009111328 0.11095374 -0.091676265
000060 12 0c d5 3d dd 70 93 3b 34 5f f8 3d 22 fc 95 3e
       0.10402693 0.0044995383 0.121275336 0.29293925
000070 87 b5 9f bd 48 69 b6 3e f0 37 85 3d 31 bc 10 3e
       -0.077982955 0.35627198 0.0650481 0.1413429
000080 7f 97 9b be b9 b7 04 bc 46 a9 d6 bc 93 fc 3c be
       -0.3038902 -0.0081004435 -0.026203763 -0.18455724
000090 c8 b1 7c bd 62 52 d9 bd db ea 4c be cf 8d 8f bd
       -0.061692983 -0.106114164 -0.20011465 -0.0700947
0000a0 e9 2a 05 bc ba 11 3a be 59 91 1a be bf c5 16 bd
       -0.008127906 -0.18170825 -0.15094508 -0.03680968
0000b0 7d 94 8a be 6b fc e6 3d ea 37 66 bd 94 66 62 bc
       -0.27066413 0.11278614 -0.056205668 -0.013818402
0000c0 71 cc a9 3d 9e aa ff 39 28 a8 25 3e a4 fd d0 bb
       0.08290947 0.0004876451 0.16177428 -0.0063778926
0000d0 7c 15 95 3e 08 58 10 be 1c a2 86 be be b4 ca bb
       0.29117954 -0.14096081 -0.26295555 -0.006186097
0000e0 c5 63 a0 bc e6 ea 63 be f7 f9 8a be 68 5d 48 bc
       -0.019578824 -0.22257575 -0.27143833 -0.012229301
0000f0 28 c0 95 3e 25 8b 0e 3e 73 0f 4f be a8 4e 66 3e
       0.29248166 0.13920267 -0.20220737 0.22490942

exp_avg f4 [64]
000000 4f c9 88 b9 06 5e 8f b8 cd 3d 94 b9 3f f6 c0 b9
       -0.00026089928 -6.8362846e-05 -0.00028274805 -0.0003680456
000010 86 8a 08 39 99 79 ef 37 40 15 ea b8 be 90 84 38
       0.00013021575 2.8547644e-05 -0.000111619476 6.321211e-05
000020 e6 ef a2 b7 8e 14 5c b9 b2 2f a3 b9 3a f0 4a 39
       -1.9423616e-05 -0.00020988492 -0.00031125318 0.00019353713
000030 4b 6b cc b9 8c f6 fe b7 61 8e 69 b8 e9 a3 30 b9
       -0.00038989852 -3.0393967e-05 -5.568413e-05 -0.00016845729
000040 02 72 81 34 b1 04 b8 37 f0 5f d4 37 1b 85 32 38
       2.4111074e-07 2.1936694e-05 2.5317044e-05 4.256247e-05
000050 a8 86 5a b9 47 57 b1 b8 ea 69 0e ba 92 91 8a ba
       -0.00020840263 -8.4562744e-05 -0.00054326525 -0.0010571948
000060 b5 13 7f b8 b0 9e 27 39 7a b7 ea 37 38 20 b5 b8
       -6.081509e-05 0.00015985477 2.7980412e-05 -8.636754e-05
000070 1c f2 c7 39 d9 bd a6 b8 51 03 a0 b8 6e 45 06 ba
       0.00038136623 -7.950859e-05 -7.630012e-05 -0.000512204
000080 00 00 00 00 0d 72 cd 37 1b 7a ad 36 4f e2 03 b8
       0.0 2.4491013e-05 5.1700167e-06 -3.14436e-05
000090 00 00 00 00 68 54 da 3a 0d cf 14 b8 ce 2f e9 b8
       0.0 0.0016657235 -3.547878e-05 -0.0001111921
0000a0 e6 67 a5 39 b9 fb 22 b8 64 a4 79 38 a2 8f 91 38
       0.00031548663 -3.8858245e-05 5.9519327e-05 6.9408925e-05
0000b0 96 ba 57 b9 a4 53 2d b8 0f df 41 b8 43 41 59 39
       -0.00020573506 -4.132431e-05 -4.6222525e-05 0.00020719045
0000c0 27 ef 66 b9 c6 3b fa 38 5d 13 a9 b8 ba 62 a8 b8
       -0.000220236 0.000119320626 -8.062155e-05 -8.0292535e-05
0000d0 69 3a db b8 b7 7d 7b b9 f6 84 f9 b8 6d f4 37 39
       -0.000104536135 -0.00023984058 -0.00011898011 0.00017543296
0000e0 a1 98 f3 b8 65 3e a3 b8 70 2f 4a 39 d2 f4 6b 3a
       -0.00011615572 -7.7840676e-05 0.00019281893 0.00090010196
0000f0 46 2c 5b b9 03 fe 0c b9 00 00 00 00 06 1d 12 b7
       -0.0002090196 -0.00013446067 0.0 -8.709036e-06

exp_avg_sq f4 [64]
000000 8d 1e 8c 35 77 02 2a 36 36 cc 13 37 ec f2 9f 36
       1.0439704e-06 2.5333409e-06 8.809429e-06 4.766849e-06
000010 28 de 49 36 28 e5 c5 36 51 76 bd 36 31 e7 15 35
       3.0080646e-06 5.897735e-06 5.646413e-06 5.5843253e-07
000020 88 4e e2 35 dc 91 d6 35 4b 26 bf 36 81 a0 07 37
       1.6861168e-06 1.5986693e-06 5.6967015e-06 8.083997e-06
000030 bc dc 08 37 69 f7 ff 36 ba 36 20 36 fa 70 db 36
       8.157625e-06 7.6283945e-06 2.3873713e-06 6.539861e-06
000040 87 ff 0a 36 76 07 00 36 62 4c 02 36 e1 9e 10 37
       2.071234e-06 1.907783e-06 1.941597e-06 8.620061e-06
000050 9a 40 ca 35 d6 2e 47 36 1b 67 92 35 d7 77 79 35
       1.5068974e-06 2.9680573e-06 1.0907855e-06 9.293412e-07
000060 06 1b dc 35 f4 b7 9b 35 50 ad 1f 36 3c c3 05 37
       1.6399142e-06 1.1601937e-06 2.3793727e-06 7.972874e-06
000070 dd 70 18 36 77 db a4 36 28 96 74 37 9e 79 21 36
       2.271546e-06 4.91313e-06 1.4578494e-05 2.406166e-06
000080 00 00 00 00 e9 37 1a 37 d9 7c 86 36 47 4c b1 35
       0.0 9.192133e-06 4.0080454e-06 1.3209727e-06
000090 00 00 00 00 c9 8f 4b 36 34 72 a3 35 47 15 a7 35
       0.0 3.0333051e-06 1.2177684e-06 1.2448662e-06
0000a0 8c 1b bd 36 78 5d cc 34 4a 54 aa 35 3c 0d 83 34
       5.635846e-06 3.8065969e-07 1.2690518e-06 2.441028e-07
0000b0 ef 80 c6 36 dd 49 2f 36 7b 0e 07 35 1e d6 db 36
       5.9158697e-06 2.6120026e-06 5.031249e-07 6.551635e-06
0000c0 67 63 fe 34 03 67 55 35 b3 72 c8 35 e4 c9 41 35
       4.7383512e-07 7.9498585e-07 1.4934543e-06 7.219189e-07
0000d0 36 39 b0 35 24 c9 26 35 4a f8 28 37 95 97 09 37
       1.3129672e-06 6.2132517e-07 1.007139e-05 8.201129e-06
0000e0 ee 92 b4 35 85 8a 86 35 e9 f2 26 35 59 17 16 36
       1.3453807e-06 1.0024092e-06 6.21933e-07 2.2365332e-06
0000f0 ed 64 59 36 a2 42 02 37 00 00 00 00 39 7b 0d 36
       3.2394266e-06 7.764118e-06 0.0 2.1082362e-06

exp_avg_sq f4 [32, 64, 3, 3]
000000 b1 36 bd bb 96 97 81 bd 19 f5 bc bd 94 f3 d9 bc
       -0.005774342 -0.06327741 -0.09226436 -0.026605405
000010 01 7a 88 bd 4e 7c 99 bd 9e 1f fe 3c fd 50 51 3d
       -0.066638954 -0.07494412 0.031020936 0.051102627
000020 00 2c be 3c a2 15 5d 3c 7a 69 58 3d 21 03 d4 ba
       0.02321434 0.013493927 0.052834965 -0.0016175249
000030 5f cb 8b bb 5f 11 9b 39 12 87 46 3d b0 bd 90 3c
       -0.004266187 0.00029576846 0.048468657 0.017668575
000040 bb ef 0d 3d 9c ae e0 3a f8 b9 30 3c b5 61 6b bd
       0.034652453 0.0017141881 0.010786526 -0.057466228
000050 9f 55 02 bc e2 09 f8 bc 17 44 7d bd cf 84 3e 3c
       -0.007954984 -0.03027815 -0.061832514 0.011628344
000060 ba dc bb 3a 79 88 f2 3c 12 3a c9 bc 42 0b 19 3c
       0.0014332749 0.02960609 -0.024563823 0.009341063
000070 33 67 44 bd 5a 46 c7 bd 3a 3d 1d bc 9e 85 91 bd
       -0.04794998 -0.09730215 -0.009597117 -0.071055636
000080 7f e2 06 be 5b 1a 95 bd ab 72 b3 bd 89 f4 95 bd
       -0.13172339 -0.072804175 -0.087621056 -0.07322032
000090 58 0c bb 3c 3c d9 9c 3c 93 6a 4a 3d 35 05 61 ba
       0.022833034 0.019146554 0.049418043 -0.0008583845
0000a0 38 ee 5f 3d ae 2e 4c 3b 24 01 8c bb 99 9b 3a 3d
       0.054670542 0.0031155753 -0.004272597 0.045558546
0000b0 6f 86 29 3d fd 60 ac bb 03 fd d5 38 e3 b6 f5 3b
       0.04138797 -0.0052605853 0.000102037586 0.0074986084
0000c0 44 f6 f9 3c 0b 75 a4 bd 5c e4 b8 bd aa 96 ef bc
       0.030512936 -0.08030137 -0.09027931 -0.029246647
0000d0 9f 12 92 bd 62 34 a9 bd ec ae 55 bd ef 1d 3b 3c
       -0.07132458 -0.08261944 -0.05216877 0.011420711
0000e0 17 f9 68 3d 48 a3 02 bc f8 93 8c 3c cc e5 27 3d
       0.056878176 -0.0079735 0.0171604 0.040990636
0000f0 4a 22 0a bc e7 9e ed 3c a2 20 5e 3d fe a5 a9 3d
       -0.008431027 0.029006435 0.05423034 0.082836136
000100 6f b8 db 3d 31 4f df 3b 63 0f ee 3d 3e 9a 35 3e
       0.10728537 0.0068148603 0.116240285 0.1773462
000110 41 32 09 3e 03 63 c1 3d 37 25 0d 3e c1 e7 cf 3d
       0.13398077 0.09442713 0.13783728 0.101516254
000120 fd 69 07 bd f4 84 77 bc e0 de 24 3d b2 af a6 3c
       -0.033060063 -0.015107382 0.040251613 0.02034745
000130 28 f7 bf bc 84 9d 71 3d 97 83 18 bd a2 2d cc bc
       -0.023433283 0.05898811 -0.03723487 -0.024924103
000140 5a 8e 6c 3d 86 d5 ba 3c 07 b0 6a ba bb 10 20 bd
       0.057752945 0.022806894 -0.0008952622 -0.039078455
000150 74 89 86 bd 37 08 a7 bd c6 f1 9d bd c5 5d 6d 3d
       -0.06569186 -0.08155864 -0.0771213 0.057950754
000160 ed eb 33 3d 51 4d ce 3d 10 e5 78 3c 51 55 80 3d
       0.04392617 0.10073341 0.0151913315 0.06266273
000170 aa ea 86 bd 44 c8 81 3d 60 70 d8 3c e8 b1 4b bd
       -0.06587727 0.06337026 0.026420772 -0.04973021
000180 4c b1 95 3d d4 9e ba 3d 33 b3 a4 bc d9 99 26 bc
       0.07309207 0.09112325 -0.02010498 -0.010168516
000190 9a 02 f9 3c 32 43 d4 3c 61 cc 9d 3b a2 40 19 3c
       0.030396748 0.025910947 0.0048156236 0.009353789
0001a0 37 d9 d8 ba 7c 50 9c 3c e3 42 e6 bb 0e 9a 0f 3c
       -0.0016544227 0.019081347 -0.0070270165 0.008764757
0001b0 f4 58 a2 3c cd 97 92 bc 7c ad 7e 3d 72 70 38 3b
       0.019817807 -0.01789465 0.062177166 0.0028143195
0001c0 fc bb 6d 3d 30 12 88 3c 91 64 92 bc a0 ef a9 3c
       0.058040604 0.016610235 -0.01787022 0.020744145
0001d0 b4 9a f3 3c 9a 31 17 bd b2 f2 aa 3c 32 d7 1a 3b
       0.029736854 -0.036912538 0.02086768 0.0023626802
0001e0 fa cf 20 3c 30 f8 5a 3d 97 58 71 3d 8d 8b 98 3c
       0.0098152105 0.053459346 0.058922376 0.01862123
0001f0 41 53 3d 3d 77 57 9a 3c b2 dd 1b 3b 85 a0 e9 3b
       0.046221975 0.018840535 0.0023783264 0.007129731
000200 a4 e7 f6 3b 84 4a b2 bc 3a 5b cd 3c b1 13 40 ba
       0.007534938 -0.021764047 0.025067914 -0.0007327153
000210 89 ab 75 bc 7c 20 b0 3c b1 d6 1d 3d 6e b0 d1 3b
       -0.01499451 0.021499865 0.038534824 0.006399206
000220 fd ac 0d 3d c8 c2 f7 bc a8 e5 23 bc 82 d7 80 3d
       0.034588803 -0.030244246 -0.010003485 0.06291105
000230 3b d0 f0 bb 81 46 b4 3c 93 a4 48 bc 9a 3c 57 3d
       -0.0073490418 0.022006275 -0.012246269 0.05254803
000240 8c 5e 40 bb 7e 35 13 bc 10 45 2f bb e1 a1 21 bd
       -0.002935323 -0.0089849215 -0.0026744045 -0.03946102
000250 49 69 17 3d 32 0f 84 bc 08 ba d1 3b 62 27 b6 bc
       0.036965642 -0.016120527 0.0064003505 -0.022235576
000260 f7 11 3d bc df 98 94 b8 ed 3c c5 3b dd 6e 61 bd
       -0.011539928 -7.0856644e-05 0.006019226 -0.055037368
000270 1c 1b 91 bb 42 09 ad bd 43 df 09 bd ca 91 95 bd
       -0.0044282805 -0.084490314 -0.033660185 -0.07303198
000280 fc d2 15 be 4d 81 c4 bd 0b 96 01 3e 0c 66 f0 3d
       -0.14631265 -0.09594975 0.12654893 0.11738214
000290 ee 6e cf 3d 07 71 db 3d 37 20 48 3e 54 5b a5 3d
       0.1012858 0.10714918 0.19543539 0.0807406
0002a0 07 0f 80 3d c2 9a 67 3d 55 5e dd 3c 08 34 f1 bc
       0.06252866 0.056544073 0.02702252 -0.029443756
0002b0 6f dc 19 3c fc 36 b0 bc e1 cf d7 3c 60 63 58 bd
       0.009390934 -0.021510594 0.026344242 -0.052829146
0002c0 56 7a 47 bd 98 c6 24 3d a3 3b c1 3c 69 88 84 ba
       -0.048700653 0.040228456 0.023588007 -0.0010111454
0002d0 31 38 6d 3d 4b 07 56 bd 5e c3 ae bc c2 5c fc bc
       0.057914916 -0.05225305 -0.021333393 -0.03080595
0002e0 e2 5d 58 bd 41 1e c8 bc d4 c6 0e bd 9f 14 74 bc
       -0.05282391 -0.024428489 -0.034857586 -0.014897495
0002f0 13 3b d3 3b 02 7a ff 3d 35 f9 f4 bc 2c 16 86 bd
       0.006446251 0.12474443 -0.029903987 -0.06547198
000300 08 72 f5 3d f5 fd 71 bc 3e 6c 84 3d e0 09 05 3e
       0.1198464 -0.014770021 0.06465958 0.12992048
000310 b9 c1 92 3b 59 9d a4 3c 5a 32 9b 3d e7 91 a2 bd
       0.00447866 0.02009456 0.07577963 -0.07937985
000320 c8 26 c8 bc f8 9f 7e bd e4 0b 30 be c4 a7 6c bd
       -0.024432555 -0.062164277 -0.17192036 -0.05777718
000330 e0 e9 57 bd a3 8f 1e bd cc 07 22 3d 27 64 33 3d
       -0.052713275 -0.0387112 0.039558217 0.043796685
000340 99 85 01 3e c9 6f 12 3e d7 0e bc 3d 2d ac ed 3d
       0.1264862 0.14300455 0.09182518 0.116051055
000350 95 3b 20 3e 10 e0 ac 3d e6 20 0d 3d 03 b4 bf 3c
       0.15647729 0.08441174 0.034455203 0.023401266
000360 5f 09 fa 3c 68 55 15 3d a3 ce 15 bd ea ee 70 3d
       0.030522047 0.036458403 -0.036574017 0.058821596
000370 95 9c fa bc 90 1c 1a 3c f0 85 93 3c e8 fb e2 bc
       -0.030592242 0.009406224 0.018008202 -0.027708009
000380 5d b3 17 3d 26 82 ce 3c ec c1 bd 3d 87 92 2c 3d
       0.03703629 0.025208544 0.09265503 0.042131927
000390 d7 94 9c bc a6 ba 6d bd d1 3b ab 3c 1a ae af 3c
       -0.019113941 -0.05803933 0.020902546 0.021445323
0003a0 dd 10 4c bd 38 c3 ca bd 92 04 21 3c 86 54 25 3c
       -0.04982077 -0.09900516 0.00982775 0.010090953
0003b0 13 01 8a bc 41 e3 7e 3c 58 01 47 3d 27 73 90 3d
       -0.016846215 0.015557111 0.048585266 0.070532136
0003c0 ca f6 1a 3d f6 31 92 bb 1f 46 c4 3c d9 47 3a 3b
       0.037833013 -0.004461522 0.023959218 0.0028424172
0003d0 96 28 9b 3c 94 7b b0 bc 7a ba 2f bd f5 ea 30 bd
       0.018940251 -0.021543302 -0.042902447 -0.043192822
0003e0 6a 3c 66 bc 84 2e 6c bc 3a a0 15 3d 73 11 9c 3c
       -0.01405249 -0.014415387 0.036529757 0.01905129
0003f0 de 19 1e 3d 23 bb b6 3d 00 e3 54 3c 9d 48 b1 3d
       0.038598888 0.08922412 0.012993574 0.08656428

exp_avg f4 [32, 64, 3, 3]
000000 79 4b 62 37 6c 76 94 37 5c 0e 02 38 15 75 38 37
       1.3488222e-05 1.769812e-05 3.100779e-05 1.0994515e-05
000010 05 91 c6 37 4c f1 21 38 e7 ee 62 37 e2 90 f4 37
       2.367097e-05 3.8610116e-05 1.35262735e-05 2.9154533e-05
000020 c5 25 fe 37 27 56 34 38 ad 31 3a 38 6b 89 4e 38
       3.0296747e-05 4.299558e-05 4.439212e-05 4.9242208e-05
000030 b9 c5 40 38 e7 af 24 38 f9 e2 45 38 c2 6d 55 38
       4.596051e-05 3.926447e-05 4.7179845e-05 5.0885377e-05
000040 da 8e 4f 38 3a 3c 58 38 dd f1 81 37 5b 97 97 37
       4.9485687e-05 5.1554503e-05 1.5490625e-05 1.8071083e-05
000050 e9 cf 94 37 5a 0d 60 37 9c 9e b1 37 7d 16 8d 37
       1.773979e-05 1.3354549e-05 2.1173902e-05 1.6818982e-05
000060 97 02 18 37 09 d8 42 37 51 c0 1a 37 33 c4 25 37
       9.060509e-06 1.1613601e-05 9.223892e-06 9.880448e-06
000070 24 a8 53 37 f2 e8 3d 37 e0 96 10 37 4e 7d 6d 37
       1.2615728e-05 1.1319515e-05 8.618197e-06 1.4155476e-05
000080 c4 e2 49 37 ee ae 13 37 63 5b 5b 37 cc eb 6d 37
       1.2033332e-05 8.802612e-06 1.3074695e-05 1.4181202e-05
000090 df 67 08 b8 78 5b 29 b8 25 b9 60 b8 cc a3 e0 b7
       -3.2521664e-05 -4.0377927e-05 -5.357819e-05 -2.6779155e-05
0000a0 26 b8 3d b8 35 b4 a0 b8 1e b0 18 37 f0 c0 47 b7
       -4.5232613e-05 -7.662961e-05 9.1009115e-06 -1.1906246e-05
0000b0 c8 a9 10 b8 c3 2f 4e 36 a8 b3 0a 37 94 a9 8d 36
       -3.4490397e-05 3.0724193e-06 8.2672705e-06 4.221869e-06
0000c0 12 70 18 36 95 7c 4b 37 35 b5 1a 37 a4 f8 18 36
       2.2714999e-06 1.2128749e-05 9.221306e-06 2.2794493e-06
0000d0 52 7e 3b 37 a6 3f 3e 37 4f 14 54 b8 0f 07 64 b8
       1.117548e-05 1.1339702e-05 -5.0563653e-05 -5.436601e-05
0000e0 d3 ce 86 b8 04 1e 48 b8 7b 26 41 b8 16 d9 82 b8
       -6.428142e-05 -4.771167e-05 -4.6050623e-05 -6.2393185e-05
0000f0 dc e0 b0 b6 ba 4c 6c b7 5c e0 8f b7 05 47 a6 36
       -5.271386e-06 -1.40845605e-05 -1.7151404e-05 4.9554533e-06
000100 a7 ef 3f 36 c4 cb af 36 dc ff db 36 56 4c 90 35
       2.8600714e-06 5.239128e-06 6.5564946e-06 1.0751053e-06
000110 91 33 a7 b4 0b cf 45 36 79 ef 3f b5 ad fb 1f b5
       -3.1143693e-07 2.9475802e-06 -7.1501523e-07 -5.959835e-07
000120 df 77 20 b8 3e f9 54 b8 dc 2d a8 b8 35 0b f8 b7
       -3.825861e-05 -5.0776864e-05 -8.019406e-05 -2.9569122e-05
000130 bc 82 82 b8 89 3d b0 b8 aa c1 ff b5 27 d6 18 b8
       -6.223234e-05 -8.403796e-05 -1.9055344e-06 -3.643907e-05
000140 47 f9 72 b8 e1 da d3 b5 e8 26 a7 35 dc 8e 32 36
       -5.7929454e-05 -1.5784427e-06 1.2453793e-06 2.6607222e-06
000150 46 10 a7 b6 0c 82 ef b4 cd f8 75 35 09 ec 5d b6
       -4.9788823e-06 -4.461184e-07 9.1631665e-07 -3.3068957e-06
000160 83 6f 36 36 4a 72 1d b6 6d 31 a9 37 34 88 a5 37
       2.7185022e-06 -2.3461348e-06 2.0169386e-05 1.9732957e-05
000170 9a b3 06 38 3e b0 86 37 e8 ce 44 37 48 2d e9 37
       3.2115357e-05 1.6056114e-05 1.17306845e-05 2.779685e-05
000180 13 42 c2 36 bb 3f 37 37 70 3d 96 37 34 d4 1c 38
       5.7893426e-06 1.0922488e-05 1.7910002e-05 3.7390928e-05
000190 1c 4e 27 38 e2 24 13 38 b9 19 1e 38 c2 3f 36 38
       3.9888648e-05 3.508188e-05 3.769409e-05 4.345156e-05
0001a0 60 62 cf 37 c2 3e 86 38 18 41 73 38 80 3a 3d 38
       2.4722132e-05 6.4013075e-05 5.7996338e-05 4.5115594e-05
0001b0 b3 a8 61 b8 7c 72 8b b8 c9 c9 a5 b8 95 bd 6a b8
       -5.3801294e-05 -6.649361e-05 -7.9053985e-05 -5.596651e-05
0001c0 ec d6 97 b8 7e ae be b8 e9 a9 26 b8 f6 40 81 b8
       -7.2402734e-05 -9.092408e-05 -3.9735725e-05 -6.163299e-05
0001d0 53 da 90 b8 d9 fa 92 37 b3 3a c9 36 be f9 a2 b6
       -6.907121e-05 1.7521366e-05 5.9971003e-06 -4.85705e-06
0001e0 eb 3d 9d 37 6d 88 ba b5 9a 07 c8 b7 ef 7c 84 37
       1.8744691e-05 -1.3897785e-06 -2.3845398e-05 1.5793803e-05
0001f0 50 4d e4 b5 1d 75 7d b7 68 af 08 38 91 d0 e6 37
       -1.7009825e-06 -1.5107243e-05 3.2588287e-05 2.7515258e-05
000200 d8 ed 9e 37 9d c7 b1 37 6e f2 c0 37 75 ba 92 37
       1.8945822e-05 2.1192996e-05 2.3001074e-05 1.7491382e-05
000210 78 f4 43 38 07 24 37 38 5c d5 24 38 ce 46 4f b8
       4.6719302e-05 4.3664153e-05 3.9299353e-05 -4.9418588e-05
000220 28 a2 62 b8 fe ea 73 b8 4d 11 31 b8 7a 0c 72 b8
       -5.403362e-05 -5.815457e-05 -4.22162e-05 -5.7708916e-05
000230 db 81 a8 b8 db 69 0d b8 9d 37 4d b8 36 47 89 b8
       -8.035052e-05 -3.3715605e-05 -4.8927603e-05 -6.545933e-05
000240 bf 82 28 b8 18 fd 85 b8 d3 cc b1 b8 18 14 1f b8
       -4.0176088e-05 -6.3890766e-05 -8.478169e-05 -3.7927268e-05
000250 36 69 98 b8 fb 21 e3 b8 8e 81 d3 b6 8e 78 34 b8
       -7.267522e-05 -0.00010830533 -6.303372e-06 -4.302762e-05
000260 52 83 9a b8 16 a1 8d b6 a2 75 e1 b6 2c 79 97 35
       -7.3677526e-05 -4.2208803e-06 -6.719217e-06 1.1285642e-06
000270 10 8e 38 b6 76 ba ce b5 31 ed 2c 37 4a 76 cc b5
       -2.7500828e-06 -1.5402463e-06 1.0307224e-05 -1.5233611e-06
000280 05 a4 58 36 c5 ee 0c 37 73 47 84 36 d0 69 aa 36
       3.228198e-06 8.400243e-06 3.9422243e-06 5.078713e-06
000290 18 38 fa 36 dd 2e 1b 37 4d b9 16 36 76 8b 1e 37
       7.4571108e-06 9.249631e-06 2.24596e-06 9.450005e-06
0002a0 73 96 7c 37 70 1f 52 37 47 d5 52 37 53 f7 36 b7
       1.50554e-05 1.2524295e-05 1.2566633e-05 -1.090563e-05
0002b0 27 b2 b4 b6 8a 33 35 35 d1 7c a6 b7 0d 04 3c b7
       -5.3851577e-06 6.7502754e-07 -1.9846864e-05 -1.1206616e-05
0002c0 3f 97 4c b6 a5 8c 21 b8 23 0f 04 b8 bc 7f f1 b7
       -3.0486406e-06 -3.8516377e-05 -3.148535e-05 -2.878892e-05
0002d0 46 dd be b4 5c 7d 4b 35 84 b0 a8 36 db b2 ba 35
       -3.5551255e-07 7.5805815e-07 5.0273393e-06 1.3910134e-06
0002e0 8a ad de 36 45 0d 70 37 e7 37 2c b4 1a 71 17 37
       6.636318e-06 1.4308204e-05 -1.6039085e-07 9.026635e-06
0002f0 8c 27 bb 36 00 75 6c 36 cc 85 cf b4 78 af 7f 37
       5.577638e-06 3.5234843e-06 -3.8654105e-07 1.5240039e-05
000300 a8 8e 98 36 d8 a6 76 35 44 04 5e 37 2e 67 97 b6
       4.5465604e-06 9.188493e-07 1.3233224e-05 -4.5121624e-06
000310 97 48 27 b6 ad 34 2b 37 3f c8 57 37 3e 02 67 37
       -2.4927192e-06 1.0204659e-05 1.2861622e-05 1.3769195e-05
000320 55 2d b5 37 4d 6a 49 37 d6 7f 96 37 24 31 f2 37
       2.159799e-05 1.2005284e-05 1.7940922e-05 2.8871531e-05
000330 b1 ea 0b 37 d5 b4 78 37 91 a1 bb 37 c6 98 e1 b4
       8.339689e-06 1.4824055e-05 2.2367372e-05 -4.2020673e-07
000340 43 31 42 36 82 b6 f8 b4 3d c7 65 37 93 f3 43 37
       2.8936927e-06 -4.6326392e-07 1.3695852e-05 1.1679617e-05
000350 6a 2e 77 37 ba 96 c3 36 80 5c bf 36 a9 67 13 37
       1.4733154e-05 5.8289997e-06 5.703012e-06 8.786018e-06
000360 25 c0 68 b7 7c da 43 b7 6d 15 4f b7 e6 a6 8d b7
       -1.3873015e-05 -1.1673776e-05 -1.234315e-05 -1.6886228e-05
000370 49 c8 89 b7 09 90 98 b7 f8 a0 ca b7 c9 22 9d b7
       -1.6424938e-05 -1.8186884e-05 -2.4155233e-05 -1.8732057e-05
000380 9e b3 a4 b7 fe 1b 01 35 d4 8f f6 35 bb 23 a0 36
       -1.9633964e-05 4.809698e-07 1.8370288e-06 4.772531e-06
000390 50 4f 53 b6 dd 00 98 b6 97 e4 03 37 4c b9 8a 36
       -3.1487616e-06 -4.5300535e-06 7.861431e-06 4.134292e-06
0003a0 f4 d2 37 37 65 78 27 37 71 c9 a0 b7 a6 1d eb b7
       1.0956766e-05 9.982007e-06 -1.916729e-05 -2.802799e-05
0003b0 4b 33 f0 b7 d5 47 78 b7 b5 e0 04 b8 1a 55 1c b8
       -2.8634115e-05 -1.4798677e-05 -3.1680527e-05 -3.7272555e-05
0003c0 af ff 3d 36 1d 21 36 b7 8a e7 7b b7 b3 f8 76 36
       2.8312022e-06 -1.0855755e-05 -1.5014675e-05 3.6801619e-06
0003d0 e2 e7 41 37 83 d7 1a 37 ad a3 14 b6 32 a6 08 37
       1.1557686e-05 9.229293e-06 -2.214899e-06 8.144927e-06
0003e0 ac db 2e 37 09 13 11 b7 73 d3 4f b6 d8 77 03 b7
       1.04223545e-05 -8.6471055e-06 -3.0968483e-06 -7.836112e-06
0003f0 53 39 e4 37 21 37 17 38 96 d9 d1 37 0c d3 ed 37
       2.7206412e-05 3.605255e-05 2.5016063e-05 2.8350878e-05

exp_avg_sq f4 [32, 64, 3, 3]
000000 9e c1 9b 30 88 cf 9c 30 e0 ce d4 30 1e dc e1 30
       1.1332764e-09 1.1409478e-09 1.5483828e-09 1.6433466e-09
000010 c1 3d 1d 31 68 8f 52 31 28 64 09 31 e5 db 33 31
       2.288161e-09 3.064054e-09 1.9993056e-09 2.6172924e-09
000020 49 58 51 31 fd 78 5b 33 fb fe 68 33 ac 26 73 33
       3.0463687e-09 5.109995e-08 5.4248613e-08 5.661302e-08
000030 5f b7 60 33 3c d5 6e 33 00 3e 75 33 d1 c5 5d 33
       5.232084e-08 5.560763e-08 5.7099896e-08 5.1635485e-08
000040 e4 14 65 33 b1 cd 69 33 0c 2f c9 31 5a b5 ca 31
       5.3337217e-08 5.4436615e-08 5.8552185e-09 5.899591e-09
000050 51 66 e4 31 fb 3e d5 31 e4 c5 f0 31 87 9c 0d 32
       6.6473054e-09 6.206276e-09 7.007417e-09 8.24287e-09
000060 dc e2 ef 31 e6 21 0b 32 33 fc 1d 32 2b 32 c4 30
       6.9816064e-09 8.0985725e-09 9.195946e-09 1.4275136e-09
000070 dc 4b 81 30 4b 34 83 30 ce 8b ab 30 f1 3a 53 30
       9.407546e-10 9.546367e-10 1.2481622e-09 7.6845114e-10
000080 eb 1b 62 30 95 f6 c7 30 9b 8f 91 30 7b 13 9f 30
       8.2257995e-10 1.4549238e-09 1.0590954e-09 1.1574309e-09
000090 bc 70 04 35 79 37 0f 35 82 95 0e 35 63 21 09 35
       4.933788e-07 5.3352375e-07 5.3116685e-07 5.108506e-07
0000a0 4e d0 14 35 51 23 13 35 da c4 06 35 b5 90 10 35
       5.543742e-07 5.481316e-07 5.0205347e-07 5.3854757e-07
0000b0 01 35 0e 35 2a c6 02 32 a4 5e c7 31 41 4e b7 31
       5.2976253e-07 7.612053e-09 5.8024217e-09 5.3348974e-09
0000c0 05 fb ea 31 74 36 a0 31 5a 46 94 31 37 21 f7 31
       6.838834e-09 4.6628035e-09 4.315365e-09 7.192422e-09
0000d0 46 2a af 31 8b 3d ae 31 0a 93 8f 34 45 06 9b 34
       5.0979763e-09 5.071063e-09 2.674281e-07 2.8875561e-07
0000e0 2f 37 9c 34 3d 3d 91 34 18 4b 9d 34 57 93 9d 34
       2.9097416e-07 2.705291e-07 2.9298167e-07 2.9350733e-07
0000f0 f7 40 8b 34 d7 d4 95 34 27 b5 95 34 18 c0 bb 2f
       2.5938036e-07 2.7908274e-07 2.7885218e-07 3.4151593e-10
000100 8a eb fd 2f 6f c3 fb 2f aa 45 d4 2f b9 c7 2f 30
       4.6187792e-10 4.5795498e-10 3.8612075e-10 6.394845e-10
000110 50 27 21 30 21 08 ca 2f d6 e0 0d 30 f4 67 00 30
       5.8627325e-10 3.6749362e-10 5.161501e-10 4.6713855e-10
000120 f6 72 13 35 4c 1a 20 35 cb dc 26 35 82 a1 16 35
       5.492906e-07 5.964291e-07 6.2161115e-07 5.611438e-07
000130 e3 c8 25 35 10 09 2b 35 75 e4 14 35 6f 6a 20 35
       6.175962e-07 6.371565e-07 5.5466745e-07 5.9759526e-07
000140 1f 4c 25 35 d3 18 ac 2f 3a 47 b3 2f af 72 cc 2f
       6.157806e-07 3.1304256e-10 3.261052e-10 3.7188871e-10
000150 dc 8c f4 2f ce cd 21 30 18 56 36 30 3b 40 10 30
       4.4483428e-10 5.8863925e-10 6.633356e-10 5.247817e-10
000160 5e 91 31 30 d4 a4 32 30 07 f0 13 32 20 e1 23 32
       6.4598804e-10 6.499026e-10 8.611102e-09 9.539036e-09
000170 45 cb e6 31 d0 d5 2a 32 82 4c 3e 32 08 9b 05 32
       6.71699e-09 9.943918e-09 1.1076851e-08 7.776869e-09
000180 5c b7 2d 32 09 ad 3d 32 c3 9c 08 32 fc c9 3a 34
       1.0111616e-08 1.10405916e-08 7.951885e-09 1.7396081e-07
000190 6d f0 45 34 45 d3 44 34 0a e4 3c 34 b8 cd 46 34
       1.8434521e-07 1.8330782e-07 1.7591825e-07 1.8515027e-07
0001a0 00 72 45 34 d7 b8 38 34 e5 11 42 34 de 50 40 34
       1.8388528e-07 1.720358e-07 1.8074168e-07 1.7910813e-07
0001b0 0e 75 63 33 73 e2 72 33 78 4b 71 33 8e 13 64 33
       5.2959017e-08 5.655097e-08 5.6180824e-08 5.310317e-08
0001c0 fe fc 77 33 17 41 75 33 12 2c 59 33 0e b9 6c 33
       5.7739264e-08 5.7102707e-08 5.056433e-08 5.5116338e-08
0001d0 c1 9f 6a 33 ae 23 8d 33 49 14 99 33 a5 d0 98 33
       5.4627666e-08 6.572314e-08 7.1283075e-08 7.116004e-08
0001e0 88 6a 93 33 66 9a a2 33 a7 c8 a1 33 4d 3c 8e 33
       6.864599e-08 7.571798e-08 7.533645e-08 6.623359e-08
0001f0 f6 32 9b 33 a3 5c 99 33 7c b1 07 34 fc f0 0d 34
       7.22702e-08 7.141468e-08 1.2637423e-07 1.3219318e-07
000200 3e 5a 10 34 14 5e 05 34 b8 9a 0b 34 e6 b8 0e 34
       1.3443875e-07 1.2420816e-07 1.300167e-07 1.3292046e-07
000210 6c 59 00 34 0e 35 06 34 ef 4c 09 34 40 be 2c 34
       1.195346e-07 1.2499024e-07 1.2787108e-07 1.6087961e-07
000220 7b c0 38 34 41 54 33 34 46 5a 33 34 af 7c 3f 34
       1.720636e-07 1.6701325e-07 1.6703515e-07 1.7833621e-07
000230 99 d8 38 34 cd 91 2f 34 7b ea 39 34 8d 57 33 34
       1.7215133e-07 1.6351187e-07 1.7314771e-07 1.6702525e-07
000240 6b 19 83 35 f5 ec 8c 35 70 7a 8e 35 1a f6 86 35
       9.767658e-07 1.0499776e-06 1.0615458e-06 1.0055403e-06
000250 e9 49 92 35 3d 1b 93 35 40 57 84 35 0f d9 8d 35
       1.0899358e-06 1.0960281e-06 9.86016e-07 1.0568491e-06
000260 92 04 8e 35 00 0f 61 30 bf fb 8e 30 85 25 bf 30
       1.0581155e-06 8.187584e-10 1.040341e-09 1.3907743e-09
000270 a5 ac 5e 30 d7 d9 a0 30 16 79 de 30 1e d9 47 30
       8.100847e-10 1.1703446e-09 1.6187041e-09 7.270432e-10
000280 0a 9c 96 30 08 ff cd 30 41 7d a7 30 1d ab e7 30
       1.0958285e-09 1.4988197e-09 1.2186449e-09 1.6856095e-09
000290 e5 43 dc 30 ee e9 c3 30 a3 2c 08 31 f3 c1 ff 30
       1.6026404e-09 1.4254604e-09 1.9815978e-09 1.8608816e-09
0002a0 ae 3f aa 30 12 f5 e0 30 ec b3 cd 30 b7 f5 b0 32
       1.2387227e-09 1.6367798e-09 1.496685e-09 2.0600835e-08
0002b0 fd 59 a0 32 23 06 ac 32 d1 e2 bc 32 b6 22 b6 32
       1.8667373e-08 2.0026226e-08 2.1989225e-08 2.1203373e-08
0002c0 97 c9 c5 32 4c 57 d7 32 27 4b d0 32 d3 50 e0 32
       2.302549e-08 2.5068992e-08 2.4248562e-08 2.6113787e-08
0002d0 93 de f2 30 5b c4 1e 31 8d 92 51 31 7a dd f3 30
       1.7671077e-09 2.3103641e-09 3.0496807e-09 1.7743524e-09
0002e0 65 ce 3f 31 f5 c7 7e 31 8e b3 f1 30 ec 8e 41 31
       2.791148e-09 3.7075527e-09 1.758609e-09 2.8166438e-09
0002f0 86 75 70 31 21 ae 53 30 93 e0 75 30 7b e3 89 30
       3.49914e-09 7.7008805e-10 8.944962e-10 1.0032716e-09
000300 4a 75 76 30 e3 74 a0 30 e5 d7 c1 30 65 f8 63 30
       8.9660956e-10 1.1674753e-09 1.4103959e-09 8.293511e-10
000310 50 36 98 30 ad ac a4 30 5f 66 f0 30 ae 57 f1 30
       1.1074892e-09 1.1981648e-09 1.7491394e-09 1.7559978e-09
000320 0a a7 2f 31 a9 58 fe 30 d4 ea 18 31 a9 76 72 31
       2.5560802e-09 1.8506131e-09 2.2252395e-09 3.5283085e-09
000330 a7 d5 0e 31 c1 1e 39 31 d6 4a 80 31 b6 2e aa 30
       2.0785167e-09 2.6938525e-09 3.733798e-09 1.2382404e-09
000340 49 f8 f0 30 ce 9a 10 31 9a 52 d7 30 0a 18 18 31
       1.7532865e-09 2.1042754e-09 1.5666786e-09 2.2132576e-09
000350 ed c1 2f 31 e7 00 c0 30 92 6d 03 31 1e 24 11 31
       2.5576086e-09 1.3970095e-09 1.9125292e-09 2.1120807e-09
000360 89 25 0b 32 b8 95 16 32 f8 a6 26 32 2d df 11 32
       8.099399e-09 8.765191e-09 9.700436e-09 8.490855e-09
000370 2d b9 21 32 c7 65 32 32 7c 55 12 32 72 52 21 32
       9.4135375e-09 1.0384105e-08 8.517755e-09 9.390179e-09
000380 35 7f 31 32 ca 32 9d 30 6d 6e d9 30 04 97 01 31
       1.03316795e-08 1.1437689e-09 1.5820213e-09 1.8857813e-09
000390 54 0a a0 30 3e 55 e9 30 1c 1d 0f 31 b0 b3 87 30
       1.1644468e-09 1.6977209e-09 2.0825786e-09 9.873613e-10
0003a0 2c 18 ae 30 bb e4 dd 30 59 0f 35 34 73 f8 42 34
       1.2667036e-09 1.6144875e-09 1.6862522e-07 1.8158043e-07
0003b0 0d 30 43 34 cb fc 3b 34 39 62 4b 34 cd 11 4a 34
       1.8178271e-07 1.7507698e-07 1.8941581e-07 1.8819192e-07
0003c0 45 ef 39 34 e9 52 46 34 3b 12 44 34 a4 f9 7c 32
       1.7316513e-07 1.847035e-07 1.8260555e-07 1.4725092e-08
0003d0 a0 24 70 32 e5 da 69 32 7d 67 82 32 48 ec 76 32
       1.3978166e-08 1.3612156e-08 1.5181053e-08 1.4372809e-08
0003e0 e3 ee 72 32 8a 6e 8d 32 ff 94 84 32 26 87 83 32
       1.41405705e-08 1.6464828e-08 1.5434578e-08 1.5311866e-08
0003f0 37 0d 5c 31 14 40 9c 31 0f e7 8a 31 25 9c 64 31
       3.2021725e-09 4.5474824e-09 4.042597e-09 3.3267125e-09
